data.pth (torch, 110883 bytes, 8 tensors)

fc1.weight f4 [64, 245]
0	0x3dc68cd3	0.09694829
1	0xbdf8fc40	-0.12157488
2	0xbdfaf400	-0.122535706
3	0xbd0da101	-0.034577373
4	0x3e825da0	0.25462055
5	0x3d1b7678	0.037954777
6	0x3da61e5f	0.081112616
7	0x3c06a665	0.0082183825
8	0xbcf1f4dc	-0.029535703
9	0xbe1037f3	-0.14083843
10	0xbe1a0dec	-0.15044373
11	0x3db371b2	0.0876192
12	0x3d968763	0.07350042
13	0x3dcdcc8f	0.10048782
14	0xbe27d31b	-0.16389124
15	0xbdfd0753	-0.123549126
16	0xbe014f8c	-0.12628001
17	0xbe02f215	-0.1278766
18	0xbd3d6762	-0.04624117
19	0xbd8a4c8b	-0.06752881
20	0x3c851f7f	0.01625037
21	0xbc5f5746	-0.013631647
22	0xbda02b9d	-0.078208186
23	0xbca74f8a	-0.02042367
24	0x3dcb5e9d	0.099301554
25	0x3e1754e6	0.1477848
26	0xbd4dc95c	-0.05024086
27	0xbdef86de	-0.11695646
28	0xbc6a3aeb	-0.014296274
29	0xbd70f40a	-0.058826484
30	0xbdece664	-0.11567381
31	0xbe02575e	-0.1272864
32	0xbd7a97ed	-0.061180044
33	0xbdd93646	-0.10606055
34	0xbc9d0e16	-0.019171756
35	0xbd9d8c1a	-0.07692738
36	0xbe8b0d27	-0.27158472
37	0xbd835556	-0.06412761
38	0xbc93e203	-0.018052107
39	0xbdb1c94b	-0.08680972
40	0x3e0bcfb3	0.1365345
41	0x3eb8a7cc	0.3606552
42	0xbdbc7227	-0.0920146
43	0x3d2bf498	0.04198131
44	0x3c939c7d	0.018018955
45	0x3e4e790e	0.20163366
46	0xbde38985	-0.11110214
47	0x3c8a2a88	0.016865984
48	0xbd630f94	-0.05543478
49	0x3f054776	0.52062166
50	0xbc2dbdde	-0.01060435
51	0x3da4bca7	0.08043795
52	0x3eaa388c	0.33246267
53	0x3e2cbb60	0.16868353
54	0x3ea1e5e3	0.31620702
55	0x3dfa9623	0.122356676
56	0xbccc6cba	-0.024954189
57	0xbd9793c6	-0.074012324
58	0xbd88899f	-0.06666874
59	0xbd40f486	-0.047108196
60	0x3e098ae6	0.13431892
61	0x3b9691f9	0.004595038
62	0xbe7d45f9	-0.24733724
63	0x3d00122e	0.031267338
64	0xbdf30beb	-0.118675075
65	0xbccbd534	-0.024881937
66	0xbd987a68	-0.07445222
67	0xbdc5b366	-0.09653358
68	0xbe838176	-0.25684708
69	0x3f0bf1a5	0.54665595
70	0x3f149de2	0.5805341
71	0x3d901cf5	0.07036773
72	0xbd6b447f	-0.05743837
73	0x3c83e148	0.016098633
74	0x3b94312c	0.0045224633
75	0xbe8ea627	-0.2786114
76	0xbd863816	-0.06553666
77	0x3d867a92	0.06566347
78	0xbe36500d	-0.17803974
79	0xbe1e8147	-0.15479003
80	0xbdceab4b	-0.10091265
81	0x3dc614e7	0.096719556
82	0x3dc1628d	0.09442625
83	0xbcc1e3d7	-0.023668213
84	0xbd8fe741	-0.0702653
85	0xbd5fc4c5	-0.054631013
86	0x3ec53b59	0.3852184
87	0x3d184763	0.037177455
88	0x3d694f2e	0.056960277
89	0xbd455abf	-0.048182245
90	0xbd896372	-0.06708421
91	0x3ad88c1f	0.0016521252
92	0xbe4ce742	-0.20010093
93	0xbded6ef2	-0.11593427
94	0xbda514bf	-0.08060598
95	0x3d0525f1	0.032506887
96	0x3dc0a01b	0.09405538
97	0x3db379c6	0.08763461
98	0xbd8e3209	-0.06943137
99	0x3bab0fc0	0.0052203834
100	0xbdf14459	-0.117806144
101	0x3e1941ad	0.1496646
102	0xbd9876f4	-0.074445635
103	0xbcb47275	-0.022027234
104	0x3d4e5ef7	0.050383534
105	0x3c9d8cdc	0.019232206
106	0xbdf67d5d	-0.1203563
107	0x3e368026	0.17822322
108	0xbdcef423	-0.10105159
109	0xbd40fa19	-0.04711351
110	0xbc3cdf11	-0.011527793
111	0xbdb3dce5	-0.08782367
112	0xbdedae32	-0.11605491
113	0xbdaa2114	-0.083070904
114	0x3deb8428	0.11499816
115	0x3c8bda11	0.017071756
116	0xbd75fbe8	-0.06005469
117	0xbe8a6397	-0.27029106
118	0x3dea4ed0	0.114408135
119	0x3e0d03c9	0.13770975
120	0xbc2ee8cb	-0.010675619
121	0xbdcf39f9	-0.10118479
122	0xbd50dd42	-0.050992258
123	0xbd051302	-0.03248883
124	0x3dfb9c79	0.12285704
125	0xbc3bf752	-0.01147254
126	0x3cdea13c	0.027176492
127	0xbde67875	-0.11253444
128	0xbdf4fc5e	-0.11962198
129	0x3d669632	0.05629558
130	0xbdf15bc1	-0.11785079
131	0x3d9f037b	0.07764336
132	0xbdf346cf	-0.1187874
133	0xbd7c076f	-0.061530527
134	0x3cdace39	0.026709663
135	0x3b88b20d	0.004171616
136	0x3d397289	0.045275245
137	0x3dbf6eb9	0.093472905
138	0xbce13c49	-0.027494567
139	0xbd4cfacb	-0.050043862
140	0x3e008d41	0.12553884
141	0x3d8480f9	0.06469912
142	0xbd0d1d23	-0.034451615
143	0x3d3611c4	0.044450536
144	0x3d1b96c5	0.037985582
145	0xbc96030a	-0.018311996
146	0xbc9ba38d	-0.018998886
147	0xbd844005	-0.06457523
148	0x3e3f259d	0.18666692
149	0x3ed37ae4	0.41304696
150	0xbcd9ab61	-0.026570978
151	0x3d8f17ad	0.06986938
152	0x3a9809a5	0.0011599554
153	0x3dc35fd2	0.09539761
154	0xbd66026f	-0.056154665
155	0xbc3c19c1	-0.01148075
156	0xbce9fbfe	-0.028562542
157	0xbdb773c8	-0.089576304
158	0xbb9fc076	-0.004875238
159	0xbb6b0760	-0.003586255
160	0x3dd45976	0.10368626
161	0x3d92e14a	0.07171877
162	0xbd4260c3	-0.04745556
163	0x3c9620d8	0.018326208
164	0x3df2cc52	0.11855377
165	0x3e2b59b8	0.16733444
166	0x3de067fc	0.109573334
167	0x3cae6e18	0.021292731
168	0x3d9b7fb9	0.075927205
169	0xbd89ae2e	-0.06722675
170	0xbcb332d1	-0.021874817
171	0x3d8f5a6a	0.06999667
172	0x3d4702fc	0.04858683
173	0xbd909f36	-0.07061617
174	0xbca66a11	-0.020314248
175	0x3e3425cc	0.17592543
176	0xbdb8991f	-0.090135805
177	0x3db7b9da	0.08970995
178	0x3d6e177b	0.05812786
179	0x3d40308a	0.04692129
180	0xbec01dc0	-0.37522697
181	0xbd1be7bd	-0.0380628
182	0x3ea14e4f	0.31505057
183	0xbd8da0a9	-0.06915409
184	0x3da635ef	0.08115756
185	0x3ecf7747	0.4052069
186	0xbcd5b45c	-0.026086979
187	0xbdce10e3	-0.10061815
188	0xbd5d07eb	-0.05396263
189	0x3d0505b4	0.032476142
190	0xbd8e576f	-0.069502704
191	0x3e328e4b	0.17437093
192	0xbd7f7811	-0.062370364
193	0xbd4708ea	-0.048592485
194	0xbd71bb82	-0.059016712
195	0x3d4bbfcc	0.04974346
196	0x3d8dcb9c	0.06923601
197	0xbd4620dd	-0.048371185
198	0x3d475d36	0.048672877
199	0x3cca470c	0.02469208
200	0xbdd569fa	-0.10420604
201	0x3e1166a3	0.14199309
202	0x3e958e53	0.29210147
203	0xbd897cf0	-0.06713283
204	0xbcf61857	-0.030040903
205	0x3e4f3314	0.20234329
206	0xbd807b5b	-0.06273528
207	0xbc36d3b8	-0.011158876
208	0xbcdfde6c	-0.027327739
209	0x3e641905	0.22275169
210	0x3eaf2697	0.3420913
211	0xbd4d1344	-0.0500672
212	0xbd2aeeea	-0.041731752
213	0xbba268ac	-0.0049563255
214	0xbda2887b	-0.07936188
215	0x3cdf4d14	0.027258433
216	0xbce5aa36	-0.028035264
217	0xbdcd3ddf	-0.100215666
218	0x3d1a7426	0.037708424
219	0x3ccdd014	0.025123633
220	0xbbcda9b7	-0.006276335
221	0x3eac1121	0.33606818
222	0x3d37d8dc	0.044884548
223	0x3cfea7fe	0.031085964
224	0x3dab858d	0.08375082
225	0xbd0d8375	-0.034549195
226	0xbddf47e6	-0.109023854
227	0xbda49376	-0.080359384
228	0xbcdb4067	-0.026764108
229	0xbd7e02ca	-0.06201438
230	0x3ed60376	0.41799515
231	0x3eb6537e	0.35610574
232	0x3d5cef5a	0.0539392
233	0xbda9e293	-0.08295169
234	0x3cc534ee	0.02407309
235	0xbde551fd	-0.11197279
236	0xbd122da0	-0.035688043
237	0xbd524482	-0.051334865
238	0x3e1071ff	0.14105986
239	0x3e0fe33b	0.14051525
240	0x3e2d5079	0.16925229
241	0x3e53d117	0.2068523
242	0x3f2964ff	0.6616973
243	0x3e83583c	0.25653255
244	0xbddea1c6	-0.108706996
245	0xbe4905bb	-0.19631092
246	0x3e63d950	0.22250867
247	0x3e895f65	0.26830593
248	0xbd5c7752	-0.05382473
249	0x3c8d6a45	0.017262587
250	0x3d999d73	0.07500734
251	0xbd9c8297	-0.076420955
252	0xbdad173f	-0.084516995
253	0x3de2ebdb	0.11080142
254	0xbe542780	-0.20718193
255	0xbd9a385e	-0.075302824

fc1.bias f4 [64]
0	0x3d31d8d1	0.043419663
1	0x3d009062	0.031387694
2	0x3d2e92ea	0.042620577
3	0x3d0cf223	0.034410607
4	0x3dd24fe7	0.102691464
5	0x3dad95b4	0.08475819
6	0x3da8e972	0.08247651
7	0x3e282fef	0.16424535
8	0x3e29edc3	0.16594605
9	0x3be83bc9	0.007087205
10	0x3a898a88	0.0010493556
11	0x3dc87349	0.09787614
12	0x3d650ab8	0.055918425
13	0x3e1ccac8	0.1531173
14	0x3e18eb82	0.14933589
15	0x3d35129e	0.044207208
16	0x3e1d41db	0.15357153
17	0x3de3b9c6	0.11119418
18	0x3e10f85b	0.1415724
19	0x3aaf131d	0.0013357137
20	0x3c9f7259	0.019463705
21	0x3df9fe7f	0.122067444
22	0x3d0dc843	0.034614813
23	0x3e24f4a0	0.16108942
24	0x3d4c7053	0.04991181
25	0x3e156a40	0.14591312
26	0x3e09120e	0.13385794
27	0x3dd60aa3	0.104512475
28	0x3dcbc737	0.099501066
29	0x3db30906	0.087419555
30	0x3cd713dd	0.026254589
31	0x3de9b030	0.11410558
32	0x3dc56af2	0.09639539
33	0x3dafe21c	0.08588049
34	0x3da65095	0.081208386
35	0x3d376c21	0.044780854
36	0x3c7eef74	0.01556002
37	0x3db1eec6	0.086881205
38	0x3d26f219	0.040758226
39	0x3d828cb8	0.06374496
40	0x3da21f85	0.07916168
41	0x3d7aadd9	0.06120095
42	0xbbe06c3c	-0.00684884
43	0x3dd9f41a	0.10642262
44	0x3ddcf053	0.10788026
45	0x3c40de0f	0.011771693
46	0x3d9b8816	0.07594316
47	0x3d799aef	0.06093877
48	0x3c9e0db0	0.019293636
49	0x3e0ecdc5	0.13945682
50	0x3c423754	0.011854012
51	0x3d45321a	0.048143484
52	0x3b051d90	0.002031181
53	0x3e0783c4	0.13233858
54	0x3e1f89f0	0.15579963
55	0xbbffb062	-0.007803009
56	0x3e06c1fa	0.13159934
57	0x3b927233	0.00446918
58	0x3d78c021	0.060730103
59	0x3d99ecd2	0.07515873
60	0x3e00c0cb	0.12573545
61	0x3d9bf26e	0.07614599
62	0x3d182885	0.037148017
63	0x3dac3cae	0.08410011

fc2.weight f4 [64, 64]
0	0x3e9665f3	0.29374656
1	0xbe92cd53	-0.28672275
2	0x3ccc5422	0.024942461
3	0x3eb35b02	0.3503037
4	0xbe549061	-0.20758201
5	0x3d921b56	0.0713412
6	0xbe630260	-0.22168875
7	0xbf022d2e	-0.5085019
8	0xbea7a885	-0.32745758
9	0x3e96ff5e	0.29491705
10	0x3e94db83	0.29073724
11	0x3dc1a408	0.094551146
12	0xbe10339d	-0.14082189
13	0xbe8227a0	-0.25420856
14	0xbd9e1d7c	-0.077204674
15	0x3d68f12a	0.056870617
16	0x3de9c79b	0.11415025
17	0xbce3d7db	-0.027812889
18	0xbe4283dd	-0.18995614
19	0x3e9fa412	0.31179863
20	0xbdfe4d57	-0.12417095
21	0xbe62ab4d	-0.22135659
22	0xbe0cfad8	-0.13767564
23	0xbe04b391	-0.12959124
24	0xbdd7dcce	-0.10540162
25	0x3d804a69	0.062641926
26	0xbe5d966c	-0.21639413
27	0xbe2778e8	-0.16354716
28	0x3d928e8d	0.07156096
29	0xbe86353f	-0.262125
30	0x3df18353	0.11792626
31	0xbd67e4be	-0.05661463
32	0xbe420f90	-0.18951249
33	0xbee9433c	-0.45559108
34	0x3d059b5a	0.032618858
35	0x3e4a344f	0.19746517
36	0x3eff4594	0.4985777
37	0x3e3c1a94	0.18369514
38	0x3f080cad	0.5314434
39	0x3da065e5	0.07831935
40	0xbcd9f1b3	-0.026604509
41	0x3e39ceb1	0.18145253
42	0x3e8326f5	0.2561566
43	0xbcc36ecb	-0.023856541
44	0x3e298955	0.16556294
45	0x3e7962da	0.24354115
46	0xbe1b4c1f	-0.15165757
47	0x3dbbd505	0.091714896
48	0x3e116981	0.14200403
49	0x3daa0e8f	0.08303558
50	0xbddaf1f5	-0.10690681
51	0xbea581db	-0.32325634
52	0xbd35b3b3	-0.044360828
53	0xbe2197c3	-0.15780549
54	0xbd178941	-0.03699613
55	0x3d78b4e4	0.060719386
56	0xbe7e5924	-0.24838692
57	0x3e4da958	0.20084131
58	0x3e888511	0.26664022
59	0x3dc2a856	0.09504764
60	0xbe71e10f	-0.2362101
61	0x3ea5cdc9	0.32383564
62	0x3c3afa61	0.011412234
63	0x3e2dbbc8	0.16966164
64	0x3dbf93ac	0.09354338
65	0x3d414a10	0.047189772
66	0x3f06a448	0.52594423
67	0xbee8bc27	-0.4545605
68	0x3f04b202	0.5183412
69	0xbe82a5ef	-0.25517222
70	0xbd8e3eed	-0.06945596
71	0x3e6c4925	0.23074777
72	0xbd1b2248	-0.03787449
73	0x3e0e3a78	0.13889492
74	0xbdba6c45	-0.09102682
75	0x3ea3e8d2	0.32013565
76	0xbb8d8dd0	-0.004319884
77	0xbd23703a	-0.03990195
78	0x3c0953cb	0.008381794
79	0x3d1a7ab3	0.03771467
80	0x3eb2f21a	0.34950334
81	0xbe38f630	-0.18062663
82	0xbdd7b64d	-0.10532818
83	0xbe9ea33e	-0.3098392
84	0xbea48f83	-0.3214074
85	0x3ebc7590	0.36808443
86	0x3d2c0501	0.04199696
87	0xbee3d1c4	-0.44495976
88	0xbeaeca6e	-0.34138817
89	0xbc44ae2f	-0.012004419
90	0xbe2795e7	-0.16365777
91	0xbeb21f12	-0.3478933
92	0x3e913f98	0.2836883
93	0xbdd423f4	-0.1035842
94	0x3e130b80	0.14359856
95	0xbe7bf9b6	-0.24606976
96	0xbdc1d9a0	-0.09465337
97	0x3e5e988e	0.21737882
98	0x3c2a4cdb	0.0103943
99	0x3e0b6587	0.13612948
100	0xbd8c2bf6	-0.068443224
101	0xbf021053	-0.5080616
102	0xbe49fcad	-0.19725294
103	0x3d8cf28d	0.068822004
104	0xbe5ea058	-0.21740854
105	0xbea0a6c2	-0.31377226
106	0xbdfb9c44	-0.12285665
107	0x3e1d50ce	0.15362856
108	0xbec59446	-0.38589686
109	0x3e5ad12f	0.2136886
110	0xbf19e737	-0.6011843
111	0xbcf66066	-0.030075263
112	0x3ccbea09	0.02489187
113	0xbe4ce6f4	-0.20009977
114	0xbdbce516	-0.09223382
115	0xbe86393d	-0.26215544
116	0x3e528f08	0.20562375
117	0x3ea4abe8	0.32162404
118	0x3dc986aa	0.09840138
119	0x3e81e973	0.2537342
120	0x3e0fb59f	0.14034127
121	0xbf2879e6	-0.65811
122	0x3d904e38	0.07046169
123	0xbf276e77	-0.6540293
124	0x3db80752	0.08985771
125	0x3d7215ef	0.05910295
126	0xbea23ced	-0.31687108
127	0x3e691fa1	0.22765972
128	0xbdccffeb	-0.1000975
129	0x3d19ae22	0.03751958
130	0x3d4b5fa2	0.04965175
131	0x3dc95fd7	0.09832733
132	0xbf1392ee	-0.5764607
133	0x3eb2f962	0.3495589
134	0xbeb40634	-0.35160983
135	0x3e029cc0	0.12755108
136	0xbd8585fd	-0.06519697
137	0x3e1cd0d2	0.15314034
138	0x3e9b7ff2	0.30371052
139	0xbe1e27bb	-0.15444843
140	0xbf3cdbec	-0.73773074
141	0x3ed70624	0.41996872
142	0xbe410987	-0.1885129
143	0xbc0293fc	-0.007969853
144	0x3d9ce709	0.07661254
145	0x3ebeeb3c	0.37288845
146	0x3e32ae30	0.1744926
147	0x3e422de8	0.18962824
148	0xbd85fa89	-0.065419264
149	0xbf054fc5	-0.52074844
150	0x3d45eefd	0.04832362
151	0x3d4babdb	0.04972444
152	0xbf24af35	-0.64329845
153	0xbe319ccb	-0.17344968
154	0xbee9d271	-0.45668367
155	0xba8be628	-0.001067345
156	0xbd6b1326	-0.05739131
157	0x3e39f53d	0.18159957
158	0xbe91dcff	-0.2848892
159	0x3ebe2777	0.37139484
160	0x3efcd8bc	0.49384105
161	0x3e1b014a	0.1513721
162	0x3e559e7f	0.20861243
163	0x3e8c6a2e	0.2742476
164	0xbce15138	-0.027504548
165	0x3d377e72	0.044798322
166	0x3dab18ee	0.08354364
167	0xbd8889a9	-0.066668816
168	0xbdd2cd9f	-0.10293125
169	0xbc341b0e	-0.010992778
170	0x3e0be3bc	0.13661093
171	0x3e98fbc7	0.2987959
172	0xbe1a847e	-0.15089604
173	0x3ce3895f	0.027775465
174	0x3eaece25	0.3414165
175	0x3e920c16	0.28524846
176	0xbc1ea34d	-0.009682489
177	0xbe33991e	-0.17538878
178	0xbda1c637	-0.078991346
179	0x3e720347	0.23634063
180	0xbed9f8a6	-0.42572516
181	0xbeef6be5	-0.46762004
182	0xbda5c714	-0.08094612
183	0x3dd14543	0.10218289
184	0x3dc1a783	0.094557784
185	0xbe070530	-0.13185573
186	0xbd906150	-0.07049811
187	0x3be812c4	0.007082315
188	0xbe536e02	-0.20647433
189	0xbe480487	-0.19532977
190	0x3e842753	0.25811252
191	0xbf34073a	-0.70323527
192	0x3dd60ef1	0.104520686
193	0xbd495a97	-0.04915866
194	0x3ec178ba	0.3778742
195	0xbdfd6640	-0.12373018
196	0x3c99d63b	0.01877891
197	0x3dd465c2	0.10370971
198	0xbd6db2af	-0.058031734
199	0xbcaef312	-0.02135614
200	0x3dba877f	0.09107875
201	0x3e966e37	0.29380962
202	0x3e10977c	0.14120287
203	0xbb796efe	-0.0038060541
204	0xbe9060c7	-0.28198835
205	0xbd466b30	-0.048442066
206	0xbeeaeaa3	-0.4588214
207	0x3e52e10e	0.20593664
208	0x3e9f5f6a	0.31127483
209	0x3dfce6b7	0.12348693
210	0xbeb7e95d	-0.3592023
211	0x3c4e704e	0.012600018
212	0xbed23582	-0.41056448
213	0xbd3ce6de	-0.04611861
214	0xbd205da8	-0.039151818
215	0xbe129867	-0.1431595
216	0xbefe867d	-0.4971198
217	0x3d552571	0.05203766
218	0xbf298fba	-0.66234934
219	0xbef187e8	-0.47174
220	0x3e8564d2	0.26053482
221	0xbca61e3b	-0.020278087
222	0x3e9b7eb7	0.30370113
223	0x3d62dfed	0.055389334
224	0xbd5bfed2	-0.053709812
225	0x3d335f75	0.043792207
226	0x3dc90bdd	0.09816716
227	0x3e1acbed	0.15116854
228	0x3e34837d	0.17628284
229	0xbe559acf	-0.20859836
230	0x3d9130ba	0.07089372
231	0x3e90cd92	0.28281838
232	0xbe365a53	-0.17807893
233	0xbe6cc4ee	-0.23121998
234	0x3d6c9400	0.05775833
235	0x3dd00dae	0.10158859
236	0xbeb6af54	-0.3568064
237	0x3e95850d	0.29203072
238	0xbb85ceb6	-0.0040834798
239	0x3e8ea29a	0.2785843
240	0x3e128de5	0.14311941
241	0xbd0022b6	-0.031283103
242	0xbd98aeef	-0.07455241
243	0x3da647dd	0.081191756
244	0x3d8b63c5	0.06806139
245	0x3e99a3bb	0.3000773
246	0x3e984932	0.29743344
247	0x3eccf606	0.4003145
248	0xbdc0bf7b	-0.09411522
249	0xbeb9e3bf	-0.3630657
250	0x3e63da0d	0.22251149
251	0xbea8d5ef	-0.32975718
252	0xbe6e3f94	-0.2326644
253	0xbe1580d6	-0.14599928
254	0x3dd91bde	0.10601018
255	0xbec7bbda	-0.39010507

fc2.bias f4 [64]
0	0xbdebd080	-0.115143776
1	0x3e22d468	0.15901339
2	0xbc4875f3	-0.012235153
3	0x3d992ed5	0.074796356
4	0xbdd56700	-0.10420036
5	0x3e37cc32	0.17948988
6	0xbe16d186	-0.14728364
7	0xbe1ad115	-0.15118821
8	0xbea4809a	-0.32129365
9	0x3b794ea1	0.0038041251
10	0x3da6e45d	0.081490256
11	0xbde796be	-0.11308049
12	0x3e61731c	0.22016567
13	0xbe5a4488	-0.21315205
14	0x3e37dff7	0.1795653
15	0x3daa7f4c	0.08325061
16	0xbe064bf8	-0.13114917
17	0x3d629312	0.05531604
18	0x3dba0da8	0.09084636
19	0x3db871b6	0.09006064
20	0xbdaf7a07	-0.08568197
21	0x3bfbdc98	0.007686209
22	0x3df75542	0.120768085
23	0xbe06e6e9	-0.13174023
24	0x3dd4930a	0.10379608
25	0x3daa5f44	0.08318952
26	0xbda79857	-0.081833534
27	0x3e015fcc	0.126342
28	0x3e8f5349	0.2799323
29	0x3c96d059	0.018409895
30	0xbe21b80e	-0.15792868
31	0xbcda1a98	-0.026624009
32	0x3b8403b6	0.0040287627
33	0x3d9ec9fc	0.07753369
34	0x3d96084c	0.07325801
35	0xbe52710e	-0.2055094
36	0x3e1d0532	0.15334013
37	0xbc2d7576	-0.010587087
38	0x3de90f38	0.11379856
39	0x3dc2c14f	0.09509527
40	0x3e2240ec	0.15845078
41	0x3e829361	0.25503066
42	0x3dfea4ae	0.12433754
43	0xbda2a2f2	-0.079412356
44	0x3dde7eca	0.10864027
45	0x3e18ef48	0.14935029
46	0xbda0bf91	-0.078490384
47	0x3d4e1f8d	0.050323058
48	0xbd24b4bc	-0.040211424
49	0x3cc3ad80	0.023886442
50	0xbe236b86	-0.15958986
51	0xbcad12d0	-0.021127135
52	0xbb84af91	-0.0040492495
53	0x3d59999b	0.053125005
54	0x3cf0d6ab	0.029399237
55	0xbe39b17f	-0.18134116
56	0x3e517b0e	0.20457098
57	0x3d3955b5	0.045247752
58	0x3db26bec	0.08711991
59	0x3d217b55	0.03942426
60	0xbd903055	-0.070404686
61	0xbc3c7f9e	-0.011505036
62	0xbdc78b93	-0.097434185
63	0x3e2fcc15	0.17167695

fc3.weight f4 [64, 64]
0	0xbd9d970f	-0.07694828
1	0xbe20c9fe	-0.15702054
2	0xbec04793	-0.37554607
3	0x3db129e4	0.08650568
4	0x3ea90fea	0.33019954
5	0x3daf3cb7	0.08556502
6	0x3e14fd36	0.14549717
7	0xbe1c9cec	-0.15294236
8	0x3e8c4c59	0.27402
9	0xbe8f38fa	-0.27973157
10	0x3dd1e7f3	0.10249319
11	0x3dd8f577	0.10593694
12	0x3db6e7dd	0.08930943
13	0x3ea2954d	0.31754532
14	0x3d51df4e	0.05123835
15	0x3ec5a86e	0.38605064
16	0xbcd420fa	-0.02589463
17	0x3c475ba7	0.012167848
18	0xbc17b961	-0.009260506
19	0x3db04014	0.08605972
20	0x3f3613c2	0.711239
21	0x3f378289	0.71683556
22	0x3d8f4666	0.06995849
23	0x3e3a6e36	0.18206105
24	0x3d9a0258	0.07519978
25	0xbdcc1503	-0.09964945
26	0xbe576c48	-0.210374
27	0xbe807049	-0.25085667
28	0x3d9681db	0.07348987
29	0x3dd497ee	0.10380541
30	0x3e361c59	0.17784251
31	0xbe81ceec	-0.2535318
32	0x3d9fa783	0.07795622
33	0xbe78cdbe	-0.24297234
34	0xbdba6572	-0.091013804
35	0xbd24869f	-0.040167447
36	0x3d371a9e	0.04470312
37	0xbdbf0450	-0.093269944
38	0x3eb18afe	0.34676355
39	0xbcbfd19e	-0.023415383
40	0xbc7f30aa	-0.015575567
41	0x3d4cb65f	0.04997861
42	0x3bbd9740	0.0057858527
43	0xbf419014	-0.7561047
44	0x3e299c1f	0.16563462
45	0x3e0e2b69	0.13883747
46	0x3f174b9a	0.59099734
47	0x3e90531b	0.28188404
48	0x3e932b20	0.2874384
49	0xbe9450e8	-0.28967977
50	0x3e1b436c	0.15162438
51	0xbeb55992	-0.354199
52	0x3dca1b4a	0.09868486
53	0xbd39ff86	-0.0454097
54	0x3e2b9e1f	0.16759537
55	0x3d746f42	0.059676416
56	0x3daf897f	0.08571147
57	0x3d6120b1	0.054962818
58	0xbf1bcc3e	-0.60858524
59	0x3d858e0a	0.065212324
60	0xbdbe2757	-0.09284847
61	0xbd0d339c	-0.034473047
62	0x3e72364c	0.23653525
63	0x3d4c78a3	0.049919736
64	0x3e852ff6	0.26013154
65	0xbf48b62a	-0.7840296
66	0x3d8f3e7c	0.0699434
67	0xbd5d59ca	-0.054040708
68	0x3e465d17	0.19371448
69	0xbf0c09b7	-0.54702324
70	0x3e9c47f4	0.30523646
71	0x3e60b0e2	0.21942475
72	0x3e073d2d	0.1320693
73	0x3e0dcae1	0.13846923
74	0x3dc18d79	0.09450812
75	0x3befbcd4	0.0073162112
76	0xbe8732e5	-0.26406017
77	0x3eb17263	0.34657583
78	0xbdcf354a	-0.10117586
79	0xbe21a76e	-0.15786526
80	0x3d6b6fcf	0.057479676
81	0x3e1280cf	0.14306949
82	0x3e6cf5fd	0.23140712
83	0x3e3d695c	0.18497223
84	0x3dab03e9	0.08350355
85	0x3dbebdd7	0.09313553
86	0x3de88524	0.113535196
87	0x3cd240a3	0.025665587
88	0x3dca5742	0.09879924
89	0x3e75f6ed	0.24019976
90	0xbeaa01c4	-0.33204472
91	0x3e61be62	0.22045282
92	0xbf7ef732	-0.9959594
93	0xbde294b8	-0.11063522
94	0x3d22a69e	0.03970968
95	0xbe1b80d1	-0.15185858
96	0x3e07e19e	0.1326966
97	0xbe995a0b	-0.2995151
98	0x3ddd2667	0.1079834
99	0x3e22f218	0.15912664
100	0xbe00f530	-0.12593532
101	0xbf05df26	-0.5229362
102	0xbe38fa5b	-0.18064253
103	0x3e5614e3	0.20906405
104	0xbdaafa5d	-0.08348534
105	0xbf4a1dc4	-0.7895167
106	0xbcc030f2	-0.023460839
107	0x3d87faf1	0.0663966
108	0xbdfd0ab8	-0.1235556
109	0xbe255fd5	-0.16149838
110	0x3e71eb43	0.23624901
111	0xbcde8e61	-0.0271675
112	0xbe538d7c	-0.20659441
113	0x3da6d69f	0.081464045
114	0x3dbf8391	0.09351266
115	0xbe719cd6	-0.23594984
116	0xbcf3626c	-0.029710017
117	0x3e7fa4ea	0.24965253
118	0x3e8baca4	0.27280152
119	0xbe19497c	-0.14969438
120	0xbf2d33d2	-0.67657197
121	0x3c689727	0.014196194
122	0xbebd6607	-0.36991903
123	0xbe29329b	-0.1652321
124	0x3d7f400b	0.062316936
125	0x3ea03d40	0.3129673
126	0x3d4e2017	0.050323572
127	0x3dc571ba	0.09640832
128	0x3e12f044	0.14349467
129	0x3d0a96f6	0.033835374
130	0xbdfb7e1d	-0.122799136
131	0x3d8a0ba4	0.067405015
132	0xbdf57916	-0.11985986
133	0xbf2fd179	-0.68679005
134	0x3ed10d84	0.40830624
135	0xbe1d44ee	-0.15358326
136	0x3dc442b8	0.09583038
137	0x3e827cc4	0.25485814
138	0x3e864976	0.2622792
139	0x3e2e48a2	0.17019895
140	0xbe80d2df	-0.25160882
141	0xbe73bd19	-0.23802604
142	0xbcab10ac	-0.020881973
143	0xbea6c3d6	-0.32571286
144	0x3dcbe065	0.09954909
145	0x3ea997a2	0.331235
146	0x3e1f4131	0.15552212
147	0x3e7db480	0.24775887
148	0xbe6fb108	-0.23407376
149	0x3e3eccfb	0.18632881
150	0x3ea70a2b	0.32624945
151	0xbcf6e3b9	-0.030137883
152	0x3e0e6f47	0.13909636
153	0x3e8664cc	0.26248777
154	0xbe8ef102	-0.2791825
155	0x3f061bcb	0.5238616
156	0xbd01bd99	-0.031674955
157	0xbd05084b	-0.032478612
158	0x3de7d836	0.11320536
159	0x3da000c5	0.07812647
160	0x3ddad75b	0.10685607
161	0x3e26e206	0.16297159
162	0x3e54cc3f	0.20781039
163	0x3cd77e41	0.02630532
164	0x3e19becf	0.15014194
165	0xbf1d99f2	-0.61563027
166	0xbd57c951	-0.052682225
167	0x3e9eb3c7	0.30996534
168	0x3df7a842	0.120926395
169	0xbd88c8d0	-0.06678927
170	0x3d847bf1	0.064689524
171	0xbc891777	-0.016734822
172	0xbf0194f4	-0.5061791
173	0xbe87890d	-0.2647175
174	0xbd900808	-0.07032782
175	0x3d192ed0	0.03739816
176	0x3cd16828	0.02556236
177	0x3d0e8577	0.03479525
178	0xbe486b58	-0.19572198
179	0xbd4a48c2	-0.049385794
180	0x3cb73706	0.022365104
181	0x3e77ecf2	0.24211481
182	0x3db18f50	0.08669913
183	0xbe2fcba4	-0.17167526
184	0xbe3159ec	-0.17319459
185	0xbdbe2758	-0.09284848
186	0xbe9c546e	-0.30533165
187	0xbe7ed018	-0.24884069
188	0x3e8c87a6	0.27447242
189	0x3ebc50b3	0.3678032
190	0x3cc78597	0.024355693
191	0x3e468ee0	0.1939044
192	0xbe1e7b2d	-0.15476675
193	0xbd6e95fa	-0.058248498
194	0x3ee5e660	0.44902325
195	0x3c8d5a95	0.017255107
196	0xbe41c04b	-0.1892101
197	0x3e96ae66	0.2942993
198	0xbe34580c	-0.17611712
199	0xbd6c6c4e	-0.057720475
200	0xbe83459c	-0.25639045
201	0x3e1fe29d	0.1561379
202	0x3d8af8c5	0.0678573
203	0xbc93582c	-0.01798638
204	0x3f32759e	0.6971072
205	0xbeacd5f6	-0.3375699
206	0xbd06e8aa	-0.03293673
207	0xbe2133ce	-0.15742418
208	0xbd87c28e	-0.06628905
209	0x3e5395a4	0.20662552
210	0x3e43fa80	0.19138527
211	0x3e1664fb	0.14686958
212	0xbe5169a1	-0.2045045
213	0xbe96a472	-0.29422337
214	0xbdc44001	-0.0958252
215	0x3dc103c4	0.09424546
216	0xba23b26f	-0.0006244545
217	0x3e029c0b	0.12754838
218	0x3ee7f8a6	0.4530689
219	0x3e37cddf	0.17949627
220	0x3ebf6ebd	0.37389174
221	0xbe66da36	-0.22544178
222	0xbe06e60f	-0.13173698
223	0xbdd8a667	-0.10578614
224	0xbe0e0cf6	-0.13872132
225	0x3eab0068	0.33398747
226	0x3f00ab48	0.50261354
227	0xbcef0bbc	-0.0291804
228	0x3ce0c674	0.02743838
229	0x3ec55978	0.38544822
230	0x3d9ea127	0.07745581
231	0xbd96d4a2	-0.07364775
232	0xbcbfde60	-0.023421466
233	0x3ede5bf3	0.43429527
234	0x3c86f2c5	0.016473183
235	0x3eea23d8	0.45730472
236	0x3d69649a	0.056980707
237	0xbcf3c92a	-0.029759008
238	0xbecc3bee	-0.39889473
239	0xbe1d3251	-0.15351225
240	0xbe881bcc	-0.26583707
241	0xbdba270d	-0.090894796
242	0xbe7f34b5	-0.2492245
243	0x3ee189a3	0.4405032
244	0xbe5480ce	-0.2075226
245	0x3d39cb82	0.045360096
246	0xbd1c0e7d	-0.038099755
247	0x3c82950a	0.015940208
248	0xbd16e0ae	-0.036835365
249	0x3dbc6baa	0.09200223
250	0x3f0cbd3c	0.5497625
251	0x3dcc700d	0.099823095
252	0x3e4ef46f	0.20210432
253	0xbaacd52e	-0.0013186091
254	0xbeb52007	-0.35375997
255	0x3db7d26a	0.0897568

fc3.bias f4 [64]
0	0xbcc1cb28	-0.023656443
1	0xbeb11900	-0.34589386
2	0x3dca8c33	0.09890022
3	0x3e7fdd7d	0.24986835
4	0x3d3ef4c7	0.046620157
5	0x3e6f7b42	0.23386863
6	0xbdcaf584	-0.0991011
7	0xbe459849	-0.19296373
8	0xbe0deedd	-0.1386065
9	0xbe3e6f77	-0.18597208
10	0xbe720735	-0.23635562
11	0x3f093e95	0.5361112
12	0x3e36e52e	0.17860863
13	0xbe53fa2f	-0.20700906
14	0xbe1d3735	-0.15353091
15	0x3e23d964	0.16000897
16	0xbdf76346	-0.12079482
17	0xbd067018	-0.032821745
18	0xbe05e2eb	-0.13074844
19	0x3e08431c	0.1330685
20	0x3e76e262	0.24109796
21	0x3e7951eb	0.24347655
22	0x3cb20334	0.021730043
23	0xbe3390c4	-0.17535692
24	0xbea03198	-0.31287837
25	0x39c6ecaa	0.0003794183
26	0x3dc90a83	0.09816458
27	0xbb9ce3b2	-0.0047878856
28	0x3ded52e6	0.11588077
29	0xbe75adb5	-0.23992045
30	0x3eb026c5	0.3440458
31	0x3d940d78	0.072291315
32	0x3e933483	0.28751
33	0x3c5cedf5	0.013484468
34	0x3e09f1b1	0.13471104
35	0x3d0c50e0	0.034256816
36	0x3db1cd5d	0.08681748
37	0xbe61c07d	-0.22046085
38	0x3dc1e91c	0.0946829
39	0x3d580a36	0.052744113
40	0xbc1b641b	-0.009484316
41	0x3e3a0bbf	0.18168543
42	0x3dd41840	0.10356188
43	0x3e1603ca	0.14649883
44	0xbd368f7a	-0.044570424
45	0x3da7ca5f	0.08192896
46	0xbde59ff0	-0.11212146
47	0x3eccb0ac	0.3997854
48	0x3b881524	0.004152911
49	0xbdb50c4a	-0.088402346
50	0xbe107a4f	-0.14109157
51	0xbdc438b4	-0.09581128
52	0x3ec2febc	0.38084972
53	0xbaf0d503	-0.0018374029
54	0xbdb72066	-0.089417264
55	0xbe84bc19	-0.25924757
56	0x3e3ab085	0.182314
57	0xbec8d40c	-0.3922428
58	0xbe5be9a6	-0.21475849
59	0x3ed1d110	0.40979815
60	0xbd43d3aa	-0.04780928
61	0xbf016a00	-0.5055237
62	0x3eb44b27	0.35213587
63	0xbdc59c33	-0.09648933

out.weight f4 [23, 64]
0	0x3dc9b8e3	0.098497175
1	0xbe26212e	-0.16223595
2	0xbf818eb6	-1.0121677
3	0xbdcfe6fa	-0.10151477
4	0xbea3aa36	-0.31965798
5	0x3e0c1cbe	0.1368284
6	0x3e16b90e	0.1471903
7	0xbed14dff	-0.4087982
8	0xbe4413ab	-0.19148128
9	0x3ddd7d61	0.1081493
10	0x3df12e91	0.1177646
11	0xbf0b6b14	-0.54460263
12	0x3daaff97	0.08349531
13	0x3e214ca9	0.157519
14	0x3e841eb5	0.25804678
15	0xbedd4499	-0.43216398
16	0xbebf7e41	-0.37401012
17	0x3e135e07	0.14391337
18	0x3d2f191e	0.042748563
19	0x3d9a216f	0.07525908
20	0xbecbca23	-0.39802656
21	0xbef47c7d	-0.47751227
22	0xbee1ef5b	-0.44127926
23	0x3e2acc41	0.16679479
24	0xbeb8bdba	-0.3608225
25	0x3e7a069d	0.24416585
26	0xbdfcf7d7	-0.12351959
27	0xbebb273f	-0.3655338
28	0x3e1d6e41	0.1537409
29	0x3ccc90fd	0.02497148
30	0x3d9cc0be	0.0765395
31	0x3e544333	0.2072876
32	0xbd323374	-0.0435061
33	0x3df1e099	0.11810417
34	0xbee43959	-0.44575003
35	0xbedf76a0	-0.4364519
36	0xbec442a0	-0.3833208
37	0x3e1cfc50	0.15330625
38	0x3dc94b45	0.0982881
39	0xbe561456	-0.20906195
40	0xbed57e58	-0.41697955
41	0x3d46251c	0.048375234
42	0xbf4de461	-0.80426604
43	0x3e6ac98e	0.2292845
44	0x3e1c6aad	0.15275069
45	0xbe75120d	-0.23932667
46	0xbdda8dda	-0.10671587
47	0x3d0527e3	0.032508742
48	0xbf47d7eb	-0.7806384
49	0xbf024076	-0.5087961
50	0x3d69665b	0.05698238
51	0x3d74ee20	0.059797406
52	0xbf9c816e	-1.2226999
53	0x3d704a60	0.05866468
54	0x3ddb9501	0.107217796
55	0xbea1941d	-0.31558314
56	0xbf480080	-0.7812576
57	0x3e08389c	0.13302845
58	0x3e4a84d5	0.19777234
59	0xbf195797	-0.59899276
60	0xbc22d8ec	-0.0099394135
61	0x3d9b8c9c	0.075951785
62	0xbf901b87	-1.1258401
63	0x39081222	0.00012976726
64	0xbe44732c	-0.1918456
65	0xbdddbf29	-0.108274765
66	0xbc9113f2	-0.017709706
67	0x3dbea1dc	0.09308216
68	0xbe523ba4	-0.20530564
69	0xbeb062a7	-0.34450266
70	0x3d9e3e7e	0.07726763
71	0xbe0a969a	-0.13534012
72	0x3d41590c	0.047204062
73	0xbf072d74	-0.5280373
74	0xbe5c3695	-0.21505196
75	0xbf0341ec	-0.51272464
76	0x3e42f072	0.19037035
77	0xbee1be5c	-0.44090545
78	0xbe468b0c	-0.1938898
79	0x3c617512	0.013760822
80	0xbe77fef7	-0.24218355
81	0x3e58133d	0.21101089
82	0xbdeafd75	-0.11474124
83	0xbef5324c	-0.47889936
84	0xbf0b2ea1	-0.54368025
85	0xbe7627e2	-0.24038652
86	0xbed2557c	-0.41080844
87	0x3e1e0c08	0.15434277
88	0xbe6e202c	-0.2325446
89	0x3e0b1d2a	0.13585344
90	0x3ddf06a9	0.10889942
91	0x3d54f0a1	0.051987294
92	0xbee20642	-0.441454
93	0xbf5f802c	-0.8730495
94	0x3e4a21a6	0.19739398
95	0xbea54ac4	-0.32283604
96	0xbdfa261b	-0.12214299
97	0x3d2c499d	0.04206239
98	0xbeadbe00	-0.3393402
99	0x3e5a23fe	0.21302792
100	0xbe27b779	-0.16378583
101	0xbd84eec5	-0.06490854
102	0x3d11fa08	0.03563884
103	0xbe4c6ff0	-0.19964576
104	0xbedd6e8f	-0.43248412
105	0xbc8c1c85	-0.017103443
106	0x3df3d42f	0.11905705
107	0x3dfa9ae8	0.12236577
108	0x3dbe5ef0	0.09295452
109	0xbeda829f	-0.4267778
110	0xbf31b0e8	-0.6941056
111	0x3e056919	0.13028373
112	0xbf2b7c5d	-0.6698664
113	0xbf4a8eda	-0.79124224
114	0x3e595f7a	0.21227828
115	0x3e02af8c	0.12762278
116	0xbed853a3	-0.4225131
117	0x3d2f1326	0.04274287
118	0xbee10993	-0.43952617
119	0xbe69f70d	-0.22848149
120	0x3de53d4a	0.111933306
121	0x3dd9bf42	0.10632183
122	0x3e5bcb4d	0.21464272
123	0xbf380c7f	-0.7189407
124	0xbf0fec63	-0.5622007
125	0x3d6ec0de	0.0582894
126	0xbecdd4dc	-0.4020146
127	0x3ddf991e	0.10917877
128	0x3df8ed96	0.12154691
129	0x3e4d9c9c	0.20079273
130	0x3de5ee8d	0.112271406
131	0xbecbf58d	-0.39835778
132	0xbd9a4ac9	-0.075337954
133	0xbf39304b	-0.72339314
134	0x3d063362	0.032763846
135	0x3e2fd0cc	0.17169493
136	0xbec348ad	-0.38141385
137	0xbd27c6b2	-0.040960975
138	0x3e091b44	0.13389307
139	0xbf32ea6a	-0.6988894
140	0x3e14e807	0.14541636
141	0xbc94742e	-0.018121805
142	0x3e705229	0.23468842
143	0xbdb75989	-0.08952624
144	0xbe045238	-0.12921989
145	0x3e6b3ae0	0.22971678
146	0x3e56c551	0.20973708
147	0xbf1c474c	-0.6104629
148	0xbda6ddc2	-0.08147766
149	0x3d96bf66	0.07360725
150	0xbf193528	-0.59846735
151	0x3e50b481	0.20381357
152	0xbf1e9458	-0.61945105
153	0xbdf55568	-0.119791806
154	0x3dcb5181	0.09927655
155	0xbf1758d5	-0.5911992
156	0xbe2af0fe	-0.16693494
157	0xbd628207	-0.055299785
158	0x3dd51e89	0.10406215
159	0x3e02771d	0.1274075
160	0xbbf0e34e	-0.0073513156
161	0xbf017bc3	-0.5057947
162	0xbed338e6	-0.41254348
163	0x3e357e1b	0.17723887
164	0xbf85c642	-1.0451128
165	0x3e1d9d37	0.15392004
166	0xbf04440e	-0.51666343
167	0xbcce20cf	-0.025162129
168	0xbf2d9f6e	-0.67821395
169	0x3dd067ed	0.10176072
170	0xbe74fc1c	-0.23924297
171	0xbe539eb4	-0.20666009
172	0xbe91b97c	-0.28461826
173	0xbf941cf3	-1.1571335
174	0xbe9421ed	-0.28932133
175	0x3e0c5bcd	0.13706894
176	0x3d2e348f	0.042530593
177	0x3c9dfb7c	0.019284956
178	0x3e07e4e3	0.13270907
179	0x3de2287d	0.11042879
180	0xbdde5a9e	-0.108571276
181	0xbefed164	-0.49769127
182	0x3deb95da	0.11503191
183	0xbeef07f7	-0.46685764
184	0xbe13d6d4	-0.14437419
185	0x3e201f86	0.15637025
186	0x3e50dc05	0.20396431
187	0xbf5b9281	-0.8577042
188	0x3e184171	0.14868714
189	0x3e2d16ee	0.16903278
190	0xbfa23b3d	-1.2674328
191	0x3e12ae10	0.14324212
192	0xbee7a186	-0.4524042
193	0x3d92c172	0.07165803
194	0x3e26e16f	0.16296934
195	0x3e0d5b32	0.1380432
196	0xbe384f44	-0.17998987
197	0xbf5cb434	-0.8621247
198	0x3d6432c9	0.055712495
199	0x3e14464b	0.1447994
200	0x3cac21f9	0.021012293
201	0x3d32a651	0.043615643
202	0xbe07d27e	-0.1326389
203	0xbf8d2aaa	-1.1028645
204	0xbd4ae258	-0.049532264
205	0x3cf72c44	0.030172475
206	0xbe9a1b3f	-0.30098912
207	0xbe3812b4	-0.17975885
208	0xbe5a9df8	-0.21349323
209	0xbe6f60ba	-0.23376742
210	0xbd2a552a	-0.041585125
211	0x3df99092	0.12185778
212	0x3e31c540	0.17360401
213	0x3d8ffa78	0.07030195
214	0xbda3d8ed	-0.0800036
215	0x3dd98fbd	0.10623119
216	0xbef1d3fa	-0.47232038
217	0xbdc372db	-0.09543391
218	0xbd999c4c	-0.075005144
219	0xbf127a66	-0.57218015
220	0xbe5c64db	-0.21522848
221	0xbcf14c20	-0.029455245
222	0xbe9e0bab	-0.30868277
223	0xbeb6bbe0	-0.35690212
224	0xbf469d72	-0.7758399
225	0xbe71d68c	-0.23617
226	0x3dff5aee	0.12468515
227	0x3e544756	0.20730338
228	0xbe6f2088	-0.23352253
229	0x3e23ea84	0.1600743
230	0xbf254e24	-0.6457236
231	0xbe8296b7	-0.2550561
232	0x3de2a0f0	0.11065853
233	0xbe8aa289	-0.2707713
234	0xbe0decbe	-0.13859841
235	0x3e781622	0.24227193
236	0xbdbdc1a3	-0.09265449
237	0xbf6b586e	-0.9193181
238	0xbf6c0ad8	-0.92204046
239	0x3d33300d	0.043746997
240	0xbd1ed00d	-0.03877263
241	0xbdea610f	-0.11444294
242	0x3d9be431	0.076118834
243	0xbdb01c4b	-0.085991465
244	0xbf101da3	-0.5629522
245	0x3d28d3d8	0.041217655
246	0x3e2f4a58	0.17118204
247	0x3ce55696	0.027995389
248	0xbe91cace	-0.2847504
249	0x3e586e5f	0.21135853
250	0x3e74e635	0.23915942
251	0xbf104149	-0.5634962
252	0xbf03cba7	-0.51482624
253	0x3e07f4b2	0.13276938
254	0xbf0fc0f8	-0.5615382
255	0x3df01663	0.1172302

out.bias f4 [23]
0	0xbe10ba8e	-0.14133665
1	0xbe0c6ed2	-0.1371415
2	0xbf0a1029	-0.5393091
3	0xbe4ca951	-0.19986464
4	0xbf086073	-0.5327217
5	0xbe34f12d	-0.17670126
6	0xbe8c7410	-0.274323
7	0xbe0dffc5	-0.138671
8	0x3d93d7d6	0.07218902
9	0x3ee05c56	0.43820447
10	0x3e4a9bb8	0.19785964
11	0x3e800c2e	0.25009292
12	0xbddda60b	-0.10822686
13	0x3eaf41f5	0.3423001
14	0xbe9d393d	-0.30707732
15	0x3e27021f	0.16309403
16	0x3d092bfd	0.033489216
17	0x3e1a776c	0.15084618
18	0xbdf7e3e4	-0.121040136
19	0x3e2d6bbb	0.16935627
20	0x3d3d84bc	0.046269163
21	0x3df75ff3	0.12078848
22	0x3f0b584f	0.54431623
