data.pth (torch, 12017 bytes, 6 tensors)

l1.weight f4 [8, 154]
00000000: 4c9d 1ebe e0ae 39bf 7f62 f2bd 45e0 f73e
00000010: d1f3 d1be 3ca8 073f 81ce 0b3f a459 1e3f
00000020: 395f b13d adec f7be 0a9c 853d b6d3 d03e
00000030: 8f86 ee3d 540c 25be 53a6 0fbf 575c 67be
00000040: 7d2c 05be 9811 bb3e d196 483f 24f2 a1be
00000050: 3b26 00bf 6a91 08be 8b42 c33e 2d9c 6e3f
00000060: ae3e 613f ec40 113f d30c e43e f5e3 1abe
00000070: 14ab 4b3b f2dc 813f ff45 afbe aac6 e53d
00000080: b508 14bf 0e39 17bf a631 b53e 11d6 173f
00000090: 11d1 0f3e fb0c 763e aa23 5a3e 58bf af3e
000000a0: 8b31 d9be 5007 0abf 2c02 4dbe 4435 be3e
000000b0: 8c81 603e c6a8 893e 0679 153d 005b 5e3e
000000c0: 3373 e33c e7fb e93d a667 7f3f b4b5 2cbe
000000d0: ed62 ca3d 5136 0e3d 682c c73d 024d c63e
000000e0: 34a7 a2be 95ed c1be fb73 d6be 8c82 32be
000000f0: 589f edbe dbfd 7dbe b43c 923e dad0 893e
00000100: a832 e33d 60cf d93e e05a 9a3e 61f8 37bf
00000110: 0479 db3e 11c9 373f 9e71 2c3f 8b32 b43e
00000120: 12d6 153f f3d2 cbbe f8d5 123f fb1c 2f3f
00000130: a15d 15be 8878 de3e 0627 283e 35e9 863e
00000140: 21c0 a0bd 94a5 68bd cdbc 253f 7009 c4bd
00000150: 01c3 7c3e c26b 59be 3f39 d8bd db7a 343e
00000160: 13f5 0b3f 16f3 363e e2c7 033f 1ff3 2bbe
00000170: ed61 4e3e 6831 e13c 9b61 d03d 8e42 33be
00000180: 41d1 fabe 0c28 e03c 2f26 3c3e de00 213f
00000190: 1b5b ffbd 8d15 833e 4510 4d3f f365 e7bd
000001a0: 1ebb 7fbe 2d60 a23e 43a7 c4be eda3 03bf
000001b0: 5cb5 393e 1751 1d3f 8179 9fbe 260d f03d
000001c0: 5cbc 243d fb4a b13e 35b6 3dbc cdfb 0bbe
000001d0: 14e9 873d 9458 033f c93b 843e b6da 123f
000001e0: 6c45 1c3f ce28 1dbd cd60 b03e f0b9 193f
000001f0: 4c00 77be c042 2abf 0438 d83e 05f7 afbe
00000200: 7749 333e 0ff1 09bd 00de a13e 7f43 f93e
00000210: b710 213f 0183 173e 36f8 913e 602e 9f3e
00000220: f059 013c 775f aabe f577 ccbe 93d0 02bd
00000230: 493b 8c3e 8bf4 433f 0ef9 c9be 387d 9dbe
00000240: 31c1 3e3e df03 213f 61e5 023f 93e5 e73e
00000250: 7104 97be 6721 0d3f 8322 e23d 4c58 803e
00000260: 81be 653d 5a8d ef3d 91b1 413f 1e94 523f
00000270: b9da ca3e 8b20 e03c 642c eb3e 9940 31bf
00000280: 355a 29bf d1b9 09bf 5eb7 ba3e 8909 333f
00000290: 49f2 b83e 87ee 22bf a182 9e3d 4f85 833e
000002a0: f453 6f3f 1123 d73e a9d4 9f3e 5a03 b8be
000002b0: 6c93 16bf 13e0 d53e 9f33 6c3f 7b87 8b3e
000002c0: c797 e7bd f6ed 53bf 9ef3 20bf 8069 6f3e
000002d0: 5946 82be 2f95 0c3f 25a9 883e e2e2 2abe
000002e0: 471e 313e fef7 d1be ac30 f83e 9fdb ad3e
000002f0: f3f2 06bf 90bb 1abd b4de 21bf a12e 9bbe
00000300: f425 a1be 3492 d8be 3888 e43e a309 123f
00000310: 2c64 d33e 61e3 1dbc 4543 e2bd 7ebf 2e3e
00000320: eb0c 673e 8bb8 0a3e 8a2b 423e e1a3 5d3e
00000330: fff6 fabe 6f73 3c3f 1016 0b3f a510 f03d
00000340: 0d22 c23b 0645 25be 6d4d a43e efec b23e
00000350: 7497 3d3f 2815 263f 8d96 373f 6729 4c3c
00000360: bb43 4abe 504b 3abe 9ad8 8b3e 2768 65be
00000370: 91b9 babe 29f7 293f 3d44 96be 3602 b7be
00000380: b0d5 eabe 8c3e a0be 285b 19bf 30d0 e93d
00000390: 87c8 0cbf 69e0 7ebe 6b10 943c c00e c73e
000003a0: b48f 943e 2974 13bf 36bb 8d3e f21e 9b3e
000003b0: 2e24 d1be cff9 133f 123e 363d f72c 8f3e
000003c0: 2a4e b13e 0517 aebd bc40 a0be 029a 27be
000003d0: 3ef2 f2be d04d d93e 165a 853e 02c1 1ebd
000003e0: 978c 1b3e 02b2 0e3f a1a1 da3e 75d8 893e
000003f0: 91f8 823d f7c0 38be df99 863e 6d4d 243d
-0.15489691 -0.72532463 -0.11835193 0.48413292 -0.4100633 0.5299108 0.54611975 0.6185553
0.086607404 -0.48422757 0.06523903 0.40786523 0.11646759 -0.16117984 -0.56113166 -0.22593819
-0.13005252 0.3653686 0.7835513 -0.3163005 -0.50058335 -0.13336721 0.38136706 0.93207055
0.87986267 0.5673969 0.44541034 -0.15126021 0.0031077312 1.0145552 -0.3423309 0.11219533
-0.57825786 -0.59071434 0.3538944 0.59311014 0.14044596 0.24028389 0.21302667 0.3432567
-0.4242061 -0.5391741 -0.2002036 0.37150013 0.21924418 0.26886576 0.03649237 0.21714401
0.027764892 0.11425 0.9976753 -0.16866189 0.0988215 0.03471977 0.09725267 0.38730627
-0.3176819 -0.37876573 -0.4188536 -0.17432612 -0.46410632 -0.2480387 0.28561938 0.26917154
0.11093646 0.42541027 0.30147457 -0.7186337 0.42865765 0.7179118 0.67360866 0.3519481
0.5852977 -0.3980938 0.5735774 0.68403596 -0.14586498 0.43451333 0.16421136 0.26349798
-0.07849146 -0.056798533 0.6474121 -0.095721126 0.24683763 -0.21232513 -0.10557794 0.1762499
0.5467083 0.17866167 0.5147687 -0.16791962 0.20154543 0.027489379 0.10174867 -0.17505857
-0.48987773 0.027362846 0.18373941 0.6289195 -0.12468549 0.2560238 0.8010295 -0.11298742
-0.24973723 0.31714 -0.3840886 -0.51422006 0.1813559 0.6145186 -0.31147388 0.11721258
0.040218696 0.34627518 -0.011579086 -0.13670273 0.06636253 0.51307034 0.25826862 0.57364976
0.6104343 -0.038368993 0.34448853 0.60049343 -0.24121207 -0.665081 0.42230237 -0.34368148
0.17508493 -0.033677157 0.31614685 0.48684308 0.6291613 0.14796068 0.28509682 0.3109007
0.007894978 -0.3327596 -0.3993527 -0.031937193 0.2738898 0.7654502 -0.39447826 -0.30759597
0.18628384 0.6289653 0.51131254 0.4529234 -0.29495576 0.5512909 0.11041739 0.25067365
0.05608988 0.116968825 0.7566157 0.8225726 0.39619997 0.027359268 0.45932305 -0.69239193
-0.6615327 -0.5379916 0.36468023 0.69936424 0.3612235 -0.63645214 0.07739759 0.25687644
0.9348748 0.4201894 0.31216934 -0.35940057 -0.588187 0.41772518 0.9226627 0.272518
-0.11308246 -0.82784975 -0.6287173 0.23380089 -0.25444296 0.54915136 0.26691547 -0.16688111
0.17296706 -0.41009516 0.48474634 0.3395662 -0.5271446 -0.03777653 -0.63230443 -0.30309013
-0.31474268 -0.42299044 0.44635177 0.57045954 0.41287363 -0.009636731 -0.11047987 0.17065236
0.22563522 0.1354696 0.18961921 0.21644546 -0.49016568 0.7361364 0.5433054 0.11721925
0.0059244693 -0.16139612 0.3209032 0.3494639 0.74059224 0.6487603 0.717141 0.012461043
-0.197524 -0.18192792 0.2731369 -0.22403012 -0.364697 0.6639276 -0.29348937 -0.35743874
-0.45866156 -0.3129772 -0.5990472 0.11416662 -0.5499348 -0.24890293 0.018074235 0.3887844
0.29015887 -0.5759912 0.27681893 0.30297047 -0.40847915 0.5780305 0.04449279 0.27963993
0.34629947 -0.085004844 -0.31299388 -0.16367343 -0.4745044 0.4244218 0.26045293 -0.038758285
0.1519035 0.5574037 0.42701438 0.26922956 0.063950665 -0.1804236 0.2628927 0.0401129

l1.bias f4 [8]
00000000: 0ef0 9c3f 689c 4d3f 1730 c23f 7ac1 903f
00000010: fb55 4a3f 1fb3 3a3f eebc 2c3f 7cd2 4e3f
1.2260759 0.8031678 1.5170926 1.1309044 0.79037446 0.7292957 0.67475784 0.80789924

l2.weight f4 [8, 8]
00000000: f28a 283f fc75 bf3d 0f41 9fbf cef2 0740
00000010: 0f00 903f 9460 4d3d d229 9c3f 746b d83e
00000020: d7d7 1c3f 369a 1c3f 80d6 af3f 8f57 e13f
00000030: 10c4 3a3f e25f c3be 8dd6 a3bf 5906 bcbf
00000040: 190f ef3f 72e3 96bf 5f6c 9bbc 0f48 0b3f
00000050: 934e 0bbf b06e be3f ef03 febe 82ba f83e
00000060: 12c4 94be 7885 85be 7282 763e 7cc0 e83d
00000070: ce8d 82be 4adb adbe 760e a0be 80dc 01bc
00000080: 76be 8ebe b86d 0240 8238 f23f bc98 91bf
00000090: ce02 d63f 0998 da3f 3009 dfbe f966 833f
000000a0: da18 ec3e 54a3 0bbf 31a6 6cbf 1064 ac3f
000000b0: a9cc f5be d3aa b63d db66 b53f de86 e13f
000000c0: 3000 ad3f 5ffc 30be 19d8 ae3f e149 bbbe
000000d0: 4f6e 513e 5da3 05c0 e036 293d dfbb cf3f
000000e0: cd12 d53e 32bb 0bbe 90a0 a93f 8131 d13e
000000f0: af8a d7bf a7d5 513f 6721 0f40 3efe 86bf
0.65837014 0.093486756 -1.2441729 2.1241946 1.1250018 0.050140932 1.2200263 0.4226948
0.61266845 0.6117281 1.3737335 1.7604846 0.7295542 -0.3815909 -1.2799851 -1.4689437
1.8676482 -1.1788161 -0.018972574 0.5440683 -0.5441677 1.4877529 -0.49612376 0.48579794
-0.2905584 -0.2607839 0.24073198 0.113648385 -0.25498813 -0.33956367 -0.31261033 -0.007926106
-0.27879685 2.0379467 1.8923495 -1.1374736 1.6719606 1.7077647 -0.43561697 1.02658
0.4611271 -0.54546094 -0.9244109 1.3468037 -0.48007706 0.08919301 1.4172014 1.7619283
1.3515682 -0.17283772 1.3659698 -0.36579803 0.20452236 -2.088096 0.0413121 1.6229209
0.41615906 -0.13645628 1.3252125 0.4085808 -1.6839198 0.8196663 2.2364137 -1.0546339

l2.bias f4 [8]
00000000: e698 b63e 97c6 683f ba95 b73e 600d abbd
00000010: 8403 203f 357c 373e 6b59 453f ce21 563f
0.35663527 0.90928024 0.3585642 -0.083521605 0.62505364 0.17918475 0.77089566 0.8364533

l3.weight f4 [17, 8]
00000000: 4037 d53e fac1 9ebf 329b 44bf 00e1 52bc
00000010: 76aa 103e dd14 1c3f 614d bdbf 04a4 56bf
00000020: 474a 153f 23a1 d2bf cfc5 453f 682b 01be
00000030: 8475 93bf b784 0e3f fb33 edbf aa57 233d
00000040: ff23 5a3e 374c 8dbf dbf7 813c 03eb 833e
00000050: caca 06c0 eb05 343f ff1d 053f 904f f83d
00000060: b7be a83d e174 e93e 160b 233f 8ca3 bdbd
00000070: e5ec c8bf d5b6 d0be ad58 3dbf d2a0 443f
00000080: 9bfe f5be a49a 803e 8fa1 623e 3dca ae3e
00000090: 1fb4 f0be 3390 e9bc 42d1 953f 1824 b6bf
000000a0: 7b9f 9fbf 522e cabc a689 993f 43b0 a13e
000000b0: 17e7 023f f704 fbbf ee2b 19bf 2e79 31bf
000000c0: 0967 24c0 e25f cfbe 0b97 42bf 64b2 e23d
000000d0: 7872 ea3e 6d13 b6bf b458 7cbf 2c2b 853f
000000e0: 4829 1cc0 d259 b23e 84d7 bc3e 06d0 dfbd
000000f0: fc00 33bf ceec acbf 09f8 303f 89c1 2a3f
00000100: 2f4e 4f3f dafc 22bf af8a 843d 9c47 52be
00000110: c2ab 7bbf e40c ed3e ed53 a6bd 1d39 f6bf
00000120: 19e4 fc3e 210a 4d3f fcad 00bd 0cdc a33d
00000130: 283f 6dbe 11a0 26bf d9ca d2bf 0f4e 9cbf
00000140: 25a1 8bbd 5d01 8fbf e686 0bc0 8ce7 f13d
00000150: 860c 7ebe 05bc 963d cd22 543f 93ec ff3e
00000160: a89d eebf 0284 f13e 0f1f eabf 20d5 1e3d
00000170: ef86 703f 94f1 c9bf 3fc4 c6bf d74d 0abf
00000180: 49d6 adbd 33be d53d 367b e3bf d617 1e3e
00000190: 5bc9 173f 6dcb 3bbf 84f9 10bf e1e8 ffbf
000001a0: ab17 12bf 77fd 8c3f 1fd5 08c0 2a8b 6abe
000001b0: b7a3 c5bd 58bb fabf 3b62 6b3e e350 3e3c
000001c0: b0f5 a5bf 44bd cbbf 1fb9 063f bc2c c83d
000001d0: 031c f13d 8919 de3e 76e0 f5be da05 aa3e
000001e0: beef 43be bf96 523e 161c f0bf 3f22 9a3e
000001f0: d75d 243d bc10 333e 96d6 f8bf a687 243f
00000200: 667d ffbf 9bbc f6bd c7ea b6bf 2053 3fbc
00000210: 9943 243f ae4d c1bf d4fb 573f a7cf b1bf
0.41643715 -1.2402947 -0.7679931 -0.012871027 0.14127526 0.60969335 -1.4789239 -0.8384402
0.58316463 -1.6455425 0.77254957 -0.12614214 -1.1520238 0.55671257 -1.8531488 0.039878525
0.21302794 -1.1038884 0.015865257 0.25765237 -2.1061273 0.7032153 0.51998895 0.1212455
0.08239501 0.45596984 0.6368879 -0.0925971 -1.5697294 -0.4076449 -0.73963434 0.7680789
-0.4804581 0.2511798 0.22131942 0.3413867 -0.4701242 -0.028511142 1.1704485 -1.4229765
-1.2470545 -0.02468029 1.1995132 0.3157979 0.51133865 -1.961089 -0.59832656 -0.6932553
-2.5687888 -0.4050284 -0.76011723 0.110691816 0.45790458 -1.4224678 -0.9857285 1.04038
-2.4400196 0.34834152 0.36883175 -0.10928349 -0.6992338 -1.3509767 0.6912847 0.6670156
0.80978674 -0.6366707 0.06471764 -0.2053513 -0.98308957 0.46298897 -0.08121476 -1.923618
0.49392775 0.8009358 -0.031415924 0.08000955 -0.23168623 -0.6508799 -1.6468154 -1.2211322
-0.06817845 -1.1172291 -2.1801085 0.11811742 -0.24809465 0.07360081 0.828656 0.4998518
-1.8641863 0.47171026 -1.8290728 0.03877747 0.9395589 -1.5776849 -1.552864 -0.54025024
-0.08488137 0.10436668 -1.7771976 0.1543878 0.5929162 -0.7335728 -0.5663073 -1.9992944
-0.57067364 1.1014851 -2.1380079 -0.2290465 -0.09650367 -1.9588423 0.2298669 0.011615965
-1.2965603 -1.5917134 0.5262622 0.097741574 0.11772921 0.43378857 -0.48022813 0.3320759
-0.19134423 0.20565318 -1.8758571 0.30104253 0.040128555 0.17486852 -1.9440486 0.64269483
-1.9960144 -0.120476924 -1.4290398 -0.011677533 0.64165646 -1.5101831 0.84368634 -1.3891495

l3.bias f4 [17]
00000000: 4df4 113e 1e54 283e 3ef1 d53d f503 92bc
00000010: 381b 403d eeb1 443e 8ade e53c 6345 a9be
00000020: f052 9dbe ae46 383e 1828 783d dfd8 adbd
00000030: 80d6 8fbe c9dc 9e3e 01c6 3cbe c14d 94be
00000040: 0c64 793d
0.1425335 0.16438338 0.10446404 -0.017824152 0.046900958 0.192085 0.028060216 -0.3306075
-0.3072734 0.17995712 0.06058511 -0.084886305 -0.28093338 0.3102782 -0.18434907 -0.28965572
0.060886428
