data.pth (torch, 7729 bytes, 6 tensors)

l1.weight f4 [8, 80]
000000 f9 4e 92 be b7 ad 46 be b5 5b ad be e9 4f 9f be
       -0.28575876 -0.19402204 -0.3385903 -0.31115654
000010 df ef 9e be 75 c5 8f 3e 0c 8f 09 be 38 cf 7a 3e
       -0.31042382 0.28080335 -0.13433474 0.2449311
000020 2c 77 91 bd 5a 73 b3 3e 13 f9 e8 3e dd eb ee bc
       -0.07102808 0.35048944 0.4550253 -0.029165203
000030 b2 b9 17 be 86 61 ad be f1 a5 9c 3e 30 35 b3 3e
       -0.14816931 -0.33863467 0.30595353 0.35001516
000040 cd 4d 52 3f 82 5e db 3e 9b 67 ea 3e 3c 6a e7 3e
       0.82149965 0.4284554 0.4578217 0.45198238
000050 16 99 38 bd 53 49 b7 3e dd 16 bc be 9e b3 08 3f
       -0.04506787 0.3579813 -0.36736193 0.53399074
000060 4e c8 b5 3e 79 7e bc 3e 16 9f d1 bc 0f 22 88 be
       0.35504383 0.3681524 -0.025588553 -0.26588485
000070 45 bd 7d be 9f f2 6b 3c bb 9f 3d 3f 7f df ef 3e
       -0.24779232 0.014401107 0.74071854 0.468502
000080 90 61 98 be ad 66 ad be bf 5d ad be 15 c4 8f be
       -0.29761934 -0.33867398 -0.33860585 -0.28079286
000090 f9 7b fb 3e 13 06 86 3e 6a 3a df 3e d2 07 a3 3e
       0.4911802 0.2617651 0.43599254 0.31841904
0000a0 70 86 40 3c 87 94 1a 3e eb b0 90 be f0 79 fc 3e
       0.011750802 0.15095721 -0.28259978 0.4931178
0000b0 28 c1 df 3e 39 bb 04 bd 22 57 79 bd cf 66 aa 3e
       0.43702054 -0.032405112 -0.060874112 0.33281562
0000c0 79 35 65 3e c1 03 3c bd 4b e5 0c 3f 31 13 29 3f
       0.2238368 -0.045902018 0.55037373 0.6604491
0000d0 f3 70 86 3e f2 7c 86 3e 5d 0d 3b 3e 7f 92 cc 3e
       0.26258048 0.262672 0.18266816 0.39955518
0000e0 ed b1 e7 3e 01 25 7e 3e 58 ea 86 be d7 d2 89 bd
       0.45252934 0.24818803 -0.26350665 -0.06729668
0000f0 b2 40 a0 bc df dc 77 3e 90 f0 ce bd a9 ac b7 bd
       -0.0195621 0.2420535 -0.101044774 -0.08968479
000100 50 3b b5 bc 0d f0 b5 3e f2 83 34 bf f2 3a c3 3e
       -0.022123009 0.35534707 -0.7051383 0.3813091
000110 01 72 b1 3e dd 0a 63 bd 9b fd a6 be 24 b2 e5 3c
       0.3465729 -0.055430282 -0.3261536 0.028039046
000120 79 24 ff 3b 3a da b6 3d b1 10 94 be 4b 4d cf bd
       0.0077863303 0.08928342 -0.28918985 -0.10122164
000130 74 1e 4e 3e 00 bd 51 3f 3c 43 b8 3e 72 e2 60 be
       0.20128804 0.81929016 0.35988796 -0.21961382
000140 58 b9 10 bf 14 92 2d 3f d2 c4 d6 be b8 7f d6 be
       -0.5653281 0.6780102 -0.41947037 -0.41894317
000150 b5 7a d6 be 5f c1 f1 bd 3f a1 51 be 70 66 09 3f
       -0.41890493 -0.11804461 -0.20471667 0.5367193
000160 0b f9 79 be 68 f0 68 3f 2a e0 3b 3f 95 db e4 bc
       -0.24411409 0.9099183 0.7338892 -0.027936736
000170 8e a9 ee 3e 1f 86 d6 be e1 f0 20 bf f1 69 4e 3e
       0.46613735 -0.418992 -0.6286755 0.20157601
000180 c5 58 c2 3e 91 de 04 bf 5e 16 27 bf 50 24 c5 be
       0.3795835 -0.5190211 -0.65268505 -0.38504267
000190 53 78 dc 3e 39 9e a4 be 50 45 47 3e e0 ed 3f be
       0.4306055 -0.32151964 0.19460034 -0.18743086
0001a0 13 34 08 bf 31 ad 02 be a7 4c 97 3e fa 36 32 bf
       -0.5320446 -0.1276138 0.2955067 -0.6961514
0001b0 ec 66 e0 3e 32 ad 00 3f dd 00 e6 3e 94 89 a7 be
       0.43828523 0.50264275 0.44922534 -0.3272215
0001c0 bb 9e 57 3f e8 80 d6 be 1a 92 d6 be 5f cd b6 be
       0.8422658 -0.41895223 -0.41908342 -0.3570356
0001d0 05 29 cb be a7 1a 99 bd 81 d6 e9 3e d2 f5 d8 bd
       -0.39679733 -0.07475787 0.45671466 -0.105937615
0001e0 43 b8 51 bd 0e fa 1b 3e 6c b9 20 3f 66 c7 40 be
       -0.051201116 0.15232107 0.6278293 -0.18826064
0001f0 29 73 16 bd da 2a 29 be fd 6b 03 3f 48 fc 9b 3e
       -0.03673092 -0.16520253 0.5133665 0.30465913
000200 80 52 b0 3e bf da 88 be 99 d4 6d be 01 0d c2 be
       0.34437943 -0.2672939 -0.23225631 -0.37900546
000210 01 c0 c7 bd f7 e1 f9 3e 2d 36 08 be 5b d6 9f 3e
       -0.09753419 0.4880521 -0.13301916 0.31218228
000220 6f c7 1a 3e 59 76 1c 3e bc 9b 2d 3f a5 e5 f4 3e
       0.1511514 0.15279521 0.67815757 0.47831455
000230 ba 27 f0 bc f6 e5 b6 3e 54 6e 36 be b7 b0 43 bd
       -0.029315818 0.3572232 -0.17815524 -0.04777595
000240 e7 0a c4 3e 90 7c 9c 3e fb a7 ea 3e c6 f7 be bd
       0.38289568 0.30563784 0.45831284 -0.09324603
000250 53 fb 59 3e 60 2f 14 bd c7 ba 5c 3d e1 d5 94 bc
       0.21287279 -0.036177993 0.053889062 -0.018168392
000260 15 69 0b 3f 70 64 ca 3e 70 81 2a 3e 16 cb 16 be
       0.5445722 0.39529753 0.16650939 -0.14725909
000270 e6 d1 e8 3e 4c ca 4c 3f 49 3b 02 3f 36 ea 43 3e
       0.4547264 0.7999618 0.5087171 0.19132313
000280 62 72 c1 be e9 12 44 bd c2 5b ce be 7b 5e ce be
       -0.3778258 -0.047869597 -0.4030438 -0.40306458
000290 64 5c ce be 11 c5 85 be 77 be 5c be ca 94 c4 3e
       -0.40304863 -0.26126912 -0.21557032 0.38394767
0002a0 88 c0 69 be 12 95 31 3f 19 bb 35 3f 61 79 29 be
       -0.22827351 0.6936809 0.70988613 -0.16550209
0002b0 01 4c c9 3e be 67 ce be f9 5d df 3e 5b 64 b3 bd
       0.393158 -0.40313524 0.43626383 -0.08759376
0002c0 68 c6 11 3f bd 74 c7 3e 56 9a db 3e 53 81 56 3e
       0.5694337 0.38956252 0.42891186 0.20947771
0002d0 47 5d ce bc 00 4a 62 be 69 37 9b 3e c2 15 b1 be
       -0.025190962 -0.22098541 0.30315712 -0.34586912
0002e0 c5 3b 1b bf cf 17 3e be f4 d5 26 3e d8 d4 f0 be
       -0.60638076 -0.1856377 0.16292554 -0.47037387
0002f0 22 b3 1d bd a8 18 a2 3c 90 48 35 3f 87 e4 ce 3e
       -0.038500912 0.019787148 0.70813847 0.40408728
000300 37 85 b6 bd bb 5d ce be 3b 5b ce be 97 4e c4 be
       -0.089121275 -0.40305886 -0.40303978 -0.3834121
000310 5b e7 ce 3e 31 e3 3a be 0b de bf 3e 8a f6 3a be
       0.40410885 -0.18250729 0.37474093 -0.1825811
000320 8e 8e 37 3f b1 76 27 3f 42 f6 84 bd 21 e4 e1 bd
       0.71701896 0.65415484 -0.064922825 -0.1102984
000330 5f 85 91 bd 3e 3a ec bd 4e 24 ba 3c c8 ee 95 bc
       -0.07105517 -0.11534546 0.02272239 -0.018302336
000340 b3 13 73 3e fa 29 95 be ba 99 ad be e8 dd 00 bf
       0.23737983 -0.29133588 -0.33906347 -0.503386
000350 ce c3 35 be 2e f1 da 3e 20 a1 ad 3c 87 2a e2 3e
       -0.17750475 0.4276213 0.021194994 0.4417307
000360 2e c1 ed 3e 0d 5b 51 3e 16 a7 57 3f e4 14 8f 3e
       0.46436447 0.2044489 0.8423933 0.27945626
000370 91 08 8f bc b9 ad 03 bd 76 bb 3d be 89 ab cb bd
       -0.01746014 -0.032148097 -0.18528542 -0.09944827
000380 c7 fb ec 3d c2 ae ad 3e 18 c1 38 3f 3f d5 db bd
       0.1157146 0.33922392 0.7216964 -0.10734033
000390 9e 11 d2 3e 16 bd 8f 3d 08 82 34 3e 97 3e d0 3d
       0.41029066 0.07018487 0.17627728 0.10168188
0003a0 a2 a6 85 3d 57 35 68 be 8e 7f 55 3e 8d 5b 77 bd
       0.06525923 -0.22676598 0.2084944 -0.060390044
0003b0 1f b5 e7 3e bd 77 44 3f a6 9b f4 3e 42 ec bf 3e
       0.45255372 0.76745206 0.47775 0.37484938
0003c0 fe 5e b0 3e 66 92 d7 be 5d 1c 8c be 44 26 8c be
       0.34447473 -0.4210388 -0.2736539 -0.27372944
0003d0 57 29 8c be e5 a0 a9 be df 3f 86 3e dd d9 18 3e
       -0.2737529 -0.33130565 0.26220605 0.14926858
0003e0 7c 16 ca 3d 04 01 49 bf bf 07 9a be 36 89 2f be
       0.0986757 -0.78517175 -0.30084035 -0.17142186
0003f0 f7 7e ab 3e 65 eb 8a be ba ad 28 3f 4c 82 6e 3f
       0.33495304 -0.27132717 0.65890086 0.9316757

l1.bias f4 [8]
000000 6a 5e ad 3e 6f 81 d6 3e 66 5b ce 3e 4d 21 8c 3e
       0.33861095 0.41895625 0.40304106 0.27369156
000010 4b 15 a0 3e a6 70 6d 3f dc ec 8c 3f e4 8f 4b 3f
       0.31266245 0.9275001 1.1009784 0.79516435

l2.weight f4 [8, 8]
000000 e9 e4 f4 be ac c8 92 3f 01 41 30 3f 98 e4 37 bf
       -0.47830895 1.146749 0.6884919 -0.7183318
000010 ec 14 2d bf f2 4e c5 3f 5c d4 86 3f 5c aa 23 bf
       -0.6761005 1.5414717 1.0533557 -0.6393182
000020 c8 b9 cb bd 45 d7 2c bd 1a e5 89 be 1c 14 9c bd
       -0.09947544 -0.042197485 -0.26932603 -0.07621023
000030 03 cc 02 be 3b 2a 88 3e 0c c9 94 be 84 b5 fc bd
       -0.12773137 0.2659472 -0.29059637 -0.12339309
000040 a6 64 4a bf 8a 34 24 3e 61 cf 2f bf 80 b3 4a bf
       -0.7905983 0.16035667 -0.6867581 -0.79180145
000050 29 69 46 bf 73 a4 81 3f a5 a3 8e 3f bc 65 f0 be
       -0.7750421 1.0128311 1.114369 -0.46952617
000060 c5 70 56 3f 27 99 86 bf 31 d2 67 be f8 cf f3 be
       0.8376582 -1.0515488 -0.22638775 -0.47619605
000070 e4 5a 56 3f f4 f6 95 3f c0 9a 70 3f cb a3 c5 be
       0.8373244 1.1715989 0.9398613 -0.38601527
000080 8b 9f b3 be 66 0a 85 bf f0 34 d2 3e 56 97 55 3f
       -0.3508266 -1.0393798 0.41056013 0.83434045
000090 59 65 44 bf 88 34 52 3e 6f 83 98 3f cf d5 2b 3e
       -0.76717144 0.20527852 1.191511 0.1678078
0000a0 a8 0a 45 3e 9b f4 64 bf 07 a6 4f bf f4 f8 96 bd
       0.19242346 -0.8943574 -0.8111271 -0.07371703
0000b0 f0 ef f6 3e 11 36 c8 3e 3d 27 3d 3f f6 c4 cb 3f
       0.48229933 0.3910375 0.73888 1.5919483
0000c0 79 e6 af 3f 8e 24 a2 3e 06 ef 16 3f e2 0a 86 3e
       1.374221 0.31668514 0.5895847 0.26180178
0000d0 4a d1 74 3f fc 5d 61 bf 5e d3 86 3f 2f ca 0a bf
       0.9563185 -0.88034034 1.0533254 -0.5421476
0000e0 d1 31 37 3f 2a 9f 27 3f 3a 6c a5 3f 29 58 a7 3f
       0.7156039 0.6547724 1.2923653 1.3073779
0000f0 49 e6 40 3e e5 1a 60 3f be f1 1a bf 51 c7 e0 bd
       0.18837847 0.8754104 -0.6052512 -0.109755166

l2.bias f4 [8]
000000 a3 2b 21 3f 5d ec 8b be f3 e4 1a 3f 7f 1d b6 3d
       0.6295721 -0.27328768 0.605056 0.08892345
000010 67 49 24 3f c0 6d 6e 3f b7 3d 66 3e 94 ff 27 bd
       0.64174503 0.93136215 0.2248448 -0.041015223

l3.weight f4 [9, 8]
000000 71 20 56 3f a7 dd 88 bc 94 07 4a 3f 3c 7f 81 be
       0.8364325 -0.016707255 0.78917813 -0.25292385
000010 f1 6b 39 bf 7e 7b 9f bf 0e fd a0 bf c8 6e 0a bf
       -0.7243033 -1.2459562 -1.2577226 -0.5407529
000020 c2 4b 03 bf 29 0e 9a be 7f db ab be 3e 0c 0d 3f
       -0.5128747 -0.30088928 -0.335659 0.55096805
000030 6d ee 71 3f d4 7e 6f bf 59 64 ce bd 7c 08 0c be
       0.94504434 -0.935529 -0.100777335 -0.13675112
000040 49 28 d3 3e fa 70 85 3d 57 78 41 3f f8 a0 19 3e
       0.41241673 0.06515689 0.7557425 0.15002811
000050 91 39 62 3f 18 75 8e bc bd cb 79 bf d8 ef dc bf
       0.8836909 -0.017389819 -0.97576505 -1.7260695
000060 ec b6 0c 3f 99 92 96 3e 9c 37 8b bf d9 51 ae 3e
       0.54966617 0.2940872 -1.0876346 0.3404682
000070 d1 e1 d3 bf 8e ae 91 bf ac dc 11 3e c1 67 4f bd
       -1.6553289 -1.1381395 0.14244336 -0.050636057
000080 7e d9 52 bf 18 4b 20 3e 8c 71 29 bf 88 02 d8 3e
       -0.82363117 0.15653646 -0.66188884 0.4218943
000090 d7 ec f6 be 3d 9f db 3d 73 23 56 3f 3e a3 a3 bf
       -0.4822757 0.10723732 0.8364784 -1.2784193
0000a0 58 9c c5 bf d1 f1 8a bd 51 3c 96 be 82 68 f4 be
       -1.5438337 -0.06784404 -0.29342893 -0.47735983
0000b0 92 87 75 bf ab c8 59 bf 69 38 35 3f e9 33 ce 3e
       -0.9590999 -0.8507182 0.707892 0.4027398
0000c0 1b cf 7c bf 1e 46 a4 3e 9b aa 87 bf ef 3a af bf
       -0.9875352 0.32084745 -1.059894 -1.368986
0000d0 bd 7b 70 3f ef 5f 85 3f d6 b4 5a bf e5 9a 84 bf
       0.9393881 1.0419902 -0.85432184 -1.035977
0000e0 8d 93 e3 3e 7d 4c a6 bd 6a 54 8d bf 15 61 4e bf
       0.4444851 -0.08120058 -1.1041386 -0.80616885
0000f0 78 ff f4 3b dd f5 10 bf 44 b8 b5 bf f3 19 cf 3e
       0.0074767433 -0.5662516 -1.4196858 0.40449485
000100 37 49 e7 be ee 7e ac 3e bc 27 3d bf 95 16 06 3f
       -0.45173046 0.3369059 -0.73888755 0.5237821
000110 59 06 ab bf f2 01 48 3f 79 11 a7 bf cd ae 65 be
       -1.3361312 0.7812797 -1.3052207 -0.22429962

l3.bias f4 [9]
000000 9d fb 9e bd 05 c2 14 bf 41 d4 54 3e d5 bb f4 bd
       -0.07762835 -0.5810855 0.20784093 -0.119498886
000010 70 c2 2e be 81 93 28 3f ad 57 0a 3f e3 d4 c5 3e
       -0.1706636 0.65850073 0.5404003 0.38638982
000020 d0 28 9f 3e
       0.31085825
