data.pth (torch, 12017 bytes, 6 tensors)

l1.weight f4 [8, 154]
0.7322062 -0.24592113 0.21734706 -0.15820049 0.7142913 0.60134995 0.5049534 0.5599241
0.4101328 0.77499294 0.42823333 -1.4700823 -0.08777456 0.2942917 -0.42455655 -0.28018624
0.14565584 0.28650907 -1.337035 0.29355726 -0.17468147 -0.07109342 0.42209047 0.5479637
0.4647343 0.64856017 0.29337013 -0.3057907 0.40022117 0.0976291 -0.43022117 0.91874737
0.029347545 0.13279381 0.68339694 0.59411997 1.3111212 1.211346 0.7777405 0.33770603
0.61593497 -0.66024363 -0.57467544 0.42645985 -0.26792413 0.8325414 0.56529886 0.6031418
0.6131829 0.653479 -0.8509136 -0.112361304 0.6478244 -0.014494893 0.91308784 0.34770298
0.09552691 0.561081 0.888433 0.52785194 0.83001125 -0.5993393 0.30181062 1.0599164
0.71516407 -0.62953544 0.7777685 0.8458083 -0.6932856 -0.60700154 0.5557091 0.3264523
0.50886387 -0.4691969 0.6315332 0.7027509 -0.4625799 0.7264627 0.6540936 -0.24358271
-0.09739463 0.5721596 -0.9463726 -0.5031431 0.39883062 0.62992877 0.48792598 -0.0034480721
-0.5012129 1.0466346 0.79629076 0.28766236 0.5969665 0.24817118 0.63757837 -0.087728955
0.53140575 0.21497181 0.49255368 0.5320351 0.50462675 0.5376666 -0.74683875 -0.46052256
0.06804135 0.85173655 -0.7144642 -0.69741684 -0.1660873 -0.6301929 -0.078788884 -0.24900334
-0.06838755 0.5385159 0.17691849 0.540064 0.2012327 -0.586718 0.2328503 0.35204503
0.5552694 0.15362328 0.10721718 0.28506428 0.5447157 -0.025840208 0.35146064 0.5112996
-0.17805615 -0.22291149 -0.46867225 -0.6215351 -0.11037501 0.60577774 0.18220013 0.40009734
-0.29501438 -0.31798393 0.57848865 0.65333474 0.08393246 -1.21303 -0.0702149 -0.01406362
0.0060635866 0.55986077 -0.48662344 -0.4975146 -0.6129188 0.6462842 -0.26711315 0.33995837
-0.16878758 0.10375531 -0.56044847 -0.12830903 -0.1911983 0.60712963 -0.0049766186 0.26490852
0.23268497 0.3054355 0.43227288 0.88417244 0.4505422 -0.84978336 0.48185962 -0.17023453
0.5186066 0.59387565 -0.17339374 -0.4482197 -0.5444418 -0.14341868 0.48108593 0.36178493
-0.5932068 -0.5558835 -0.4162172 -0.5142337 -0.55872685 0.5776422 0.31520763 0.1569587
0.240416 0.10435606 -0.56807005 -0.5313875 -0.10812349 -0.31590682 -0.5279838 -0.39211217
-0.29089528 0.5469856 0.33646616 0.7486142 0.22726011 -0.59168327 0.5482851 -0.3436833
-0.114131086 -0.35620013 -0.18669383 -0.27391663 -0.6595624 0.6089764 0.0028044279 0.52264404
-0.7045913 -0.20272069 0.5584985 0.22422104 0.8265674 0.606553 0.8177778 0.5741551
0.064585246 -0.66507256 -0.24738435 -0.44003814 -0.28924373 0.4699882 -0.28246808 -0.49607274
0.3281308 0.24876884 0.2699663 0.39071605 0.26486 -0.679522 0.38062847 -0.6857644
-0.30733213 0.60185987 0.30126143 -0.15159097 -0.69215757 0.5093951 -0.47722647 -0.19165869
-0.19349852 -0.028470082 -0.4126836 0.42835975 0.7693407 0.50112784 -0.34486884 -0.06529315
-0.9445093 0.3479708 0.33381903 -0.23113817 -0.25885943 -0.55073875 -0.09005232 0.16761118
00000000: de71 3b3f c0d2 7bbe 3a90 5e3e 4fff 21be
00000010: cbdb 363f 12f2 193f a044 013f 3057 0f3f
00000020: edfc d13e f065 463f 6641 db3e a82b bcbf
00000030: 26c3 b3bd 67ad 963e 7a5f d9be 9274 8fbe
00000040: ce26 153e 51b1 923e f623 abbf 234d 963e
00000050: b3df 32be 6d99 91bd 3e1c d83e 5947 0c3f
00000060: a7f1 ed3e 0a08 263f 9c34 963e 9990 9cbe
00000070: cae9 cc3e c4f1 c73d f345 dcbe 0733 6b3f
00000080: 436a f03c 1afb 073e 1af3 2e3f 3f18 183f
00000090: d2d2 a73f 630d 9b3f 001a 473f cee7 ac3e
000000a0: eaad 1d3f ba05 29bf ee1d 13bf f258 da3e
000000b0: 5a2d 89be 6f21 553f 6db7 103f 8067 1a3f
000000c0: 8ef9 1c3f 664a 273f 79d5 59bf af1d e6bd
000000d0: d2d7 253f fd7b 6dbc 20c0 693f 2006 b23e
000000e0: 9da3 c33d 01a3 0f3f 5870 633f 4e21 073f
000000f0: 9e7b 543f 4d6e 19bf ec86 9a3e 57ab 873f
00000100: fe14 373f 3c29 21bf d61b 473f e586 583f
00000110: 2a7b 31bf 7464 1bbf f442 0e3f c224 a73e
00000120: e744 023f 933a f0be 29ac 213f 7ce7 333f
00000130: 46d7 ecbe 76f9 393f ae72 273f bf6d 79be
00000140: d676 c7bd 0d79 123f 7a45 72bf fccd 00bf
00000150: 8733 cc3e 0343 213f 6fd1 f93e 0df9 61bb
00000160: 7d4f 00bf 1ff8 853f b6d9 4b3f 7b48 933e
00000170: ccd2 183f 9620 7e3e 5638 233f 3dab b3bd
00000180: 350a 083f 9221 5c3e ff2f fc3e 7433 083f
00000190: 382f 013f 85a4 093f d330 3fbf 9dc9 ebbe
000001a0: 4359 8b3d 680b 5a3f 20e7 36bf e989 32bf
000001b0: ca12 2abe 5254 21bf 115c a1bd bbfa 7ebe
000001c0: c60e 8cbd 2edc 093f 1f2a 353e a241 0a3f
000001d0: f20f 4e3e 2733 16bf 4f70 6e3e 3f3f b43e
000001e0: 2326 0e3f 6c4f 1d3e ae94 db3d f2f3 913e
000001f0: 7d72 0b3f d8ae d3bc a6f2 b33e 88e4 023f
00000200: 5a54 36be e942 64be cff5 efbe ed1c 1fbf
00000210: 4b0c e2bd 4014 1b3f ac92 3a3e 8fd9 cc3e
00000220: 200c 97be cace a2be d517 143f f240 273f
00000230: c8e4 ab3d 9144 9bbf d4cc 8fbd 196b 66bc
00000240: 0db1 c63b 0953 0f3f b526 f9be 3cba febe
00000250: 3fe8 1cbf e272 253f 0ec3 88be 060f ae3e
00000260: a7d6 2cbe aa7d d43d 8d79 0fbf 7163 03be
00000270: 7dc9 43be d96c 1b3f e712 a3bb 17a2 873e
00000280: f844 6e3e 0b62 9c3e df52 dd3e 2059 623f
00000290: 78ad e63e 678b 59bf 4eb6 f63e f651 2ebe
000002a0: 67c3 043f 3c08 183f 218e 31be 0d7d e5be
000002b0: 8a60 0bbf 59dc 12be e550 f63e e03b b93e
000002c0: 67dc 17bf 624e 0ebf 6c1a d5be d2a4 03bf
000002d0: b908 0fbf 5ce0 133f e562 a13e c8b9 203e
000002e0: 9d2f 763e a1b8 d53d 0a6d 11bf 0309 08bf
000002f0: d96f ddbd 8abe a1be f229 07bf edc2 c8be
00000300: 3af0 94be 4007 0c3f 4b45 ac3e 2ea5 3f3f
00000310: e0b6 683e 8e78 17bf 6a5c 0c3f 42f7 afbe
00000320: 8fbd e9bd dd5f b6be ab2c 3fbe cd3e 8cbe
00000330: 15d9 28bf e1e5 1b3f 7eca 373b 00cc 053f
00000340: 1860 34bf 0396 4fbe c2f9 0e3f 339a 653e
00000350: ec99 533f 0f47 1b3f e359 513f d4fb 123f
00000360: 4545 843d 3242 2abf 5352 7dbe ae4c e1be
00000370: c117 94be 4ba2 f03e a89f 90be 3ffd fdbe
00000380: c300 a83e 42bd 7e3e 0639 8a3e ef0b c83e
00000390: bb9b 873e 27f5 2dbf bce1 c23e 418e 2fbf
000003a0: a35a 9dbe 7d13 1a3f f03e 9a3e aa3a 1bbe
000003b0: 3d31 31bf b867 023f 0757 f4be 2d42 44be
000003c0: 7a24 46be 173a e9bc 444b d3be f851 db3e
000003d0: 83f3 443f ea49 003f a692 b0be 6ab8 85bd
000003e0: 5dcb 71bf 3b29 b23e 54ea aa3e 7caf 6cbe
000003f0: 3989 84be 37fd 0cbf 5a6d b8bd 44a2 2b3e

l1.bias f4 [8]
1.3771311 1.0722631 0.8542945 1.7543724 0.8453611 1.1373897 0.70225513 0.49432585
00000000: d545 b03f eb3f 893f 0bb3 5a3f 468f e03f
00000010: 9669 583f fc95 913f fec6 333f 4718 fd3e

l2.weight f4 [8, 8]
-0.37251854 -0.051636398 0.06832282 -0.20436274 0.09248773 -0.047361728 -0.3603998 0.046722867
0.50080127 1.7651194 1.4994383 1.4375978 -0.7107203 -1.3982477 0.053704936 -1.209449
1.9447173 0.8867949 -2.0871124 1.7012713 1.2712255 -0.97904074 2.1343637 -0.95748174
-0.57596624 -0.8393771 0.51024705 1.7188282 -0.79918224 2.2690823 0.47817466 -1.2212474
-0.18007147 -0.26059413 -0.26108408 0.007813573 -0.24012133 -0.31169537 0.21176514 -0.033057094
2.2594144 -1.1352075 1.7646637 -0.120095864 2.2174382 1.337467 -2.0397398 0.41902858
0.0072397576 2.3595226 1.5051085 0.936825 -1.5018492 2.2903612 -0.20318441 1.1374083
0.7353081 -1.6807286 -0.607606 1.9623896 -0.020802666 1.6171191 -0.94462353 -0.5605506
00000000: c0ba bebe b080 53bd d6ec 8b3d 7744 51be
00000010: 356a bd3d 5ffe 41bd 5386 b8be 7a60 3f3d
00000020: 8334 003f 6fef e13f 98ed bf3f 3403 b83f
00000030: c4f1 35bf c8f9 b2bf b5f9 5b3d 3acf 9abf
00000040: 7fec f83f fe04 633f 4093 05c0 42c3 d93f
00000050: 84b7 a23f 6aa2 7abf 6a99 0840 861d 75bf
00000060: 8672 13bf 6be1 56bf 8d9f 023f 9002 dc3f
00000070: 3597 4cbf a538 1140 4fd3 f43e d651 9cbf
00000080: a864 38be 986c 85be d0ac 85be 8004 003c
00000090: 5ee2 75be 8996 9fbe f6d8 583e e066 07bd
000000a0: 3f9a 1040 7b4e 91bf 80e0 e13f d2f4 f5bd
000000b0: 82ea 0d40 1e32 ab3f 198b 02c0 ea8a d63e
000000c0: 7d3b ed3b 6b02 1740 65a7 c03f c3d3 6f3f
000000d0: 983c c0bf 4795 1240 930f 50be 9896 913f
000000e0: 273d 3c3f 1d22 d7bf 118c 1bbf 952f fb3f
000000f0: 5a6a aabc c2fd ce3f d9d2 71bf 3e80 0fbf

l2.bias f4 [8]
-0.29455885 0.7061614 0.46602625 0.4152453 -0.20768075 0.6881348 0.55607903 0.9157546
00000000: 6bd0 96be fec6 343f fe9a ee3e 089b d43e
00000010: 43aa 54be 9a29 303f 325b 0e3f e56e 6a3f

l3.weight f4 [17, 8]
0.011608414 0.38526893 0.9055969 -1.5681149 0.13227382 -0.16744386 -1.3243316 -1.3749965
0.082885765 -1.3601339 0.2805865 -2.8568108 0.33667836 0.42260927 -0.28048378 0.5147405
-0.18592975 -1.5551001 -2.1671705 0.77484447 -0.24233857 -0.16152053 -0.0050467337 0.8379102
0.29938924 0.19086045 -0.49809372 1.1788882 -0.26432717 -2.0221446 -0.60009617 0.6236179
0.035038743 0.65020066 -0.70234114 -0.412686 0.32456425 0.1976828 -0.24258037 -0.027645677
-0.021815687 -2.2771983 -0.41225913 0.049927067 0.19488242 0.31593147 -0.38485685 0.62064314
0.02371827 0.2477217 -3.221739 0.351361 -0.2167738 0.013630598 0.34748194 -0.030788328
0.17867112 -1.083096 0.25548595 -1.0874387 -0.22774866 1.0804604 -1.7377489 -1.7523596
-0.28468296 -1.3090739 -1.3449547 -0.9266454 -0.15117936 0.4786771 0.5993299 -1.5663859
0.24421658 -0.017483989 0.6631748 -1.4361739 -0.15328568 0.14864476 -2.5102355 0.5417197
-0.16512397 -0.789884 -2.1731086 -1.7410948 0.3130044 1.0277334 -0.4295223 0.8255255
0.045197416 -0.3012353 0.516557 -2.8417218 -0.072515756 -2.0083296 0.6693631 -1.4499743
0.27247974 -1.3728529 -1.6673408 -0.7978284 -0.3497383 -1.0092956 1.0866627 -0.75206167
-0.0002741301 0.7806707 0.65952516 -0.857462 0.09953162 -1.9202155 -0.4648512 -0.10997363
-0.11285889 0.9772334 -0.6782844 -2.6836467 -0.017952114 -0.048876304 0.53190404 -1.9936515
0.03489008 0.509018 -1.3612001 0.40624776 0.29103193 -1.2929802 0.51442003 -1.2460617
0.12478577 -1.1028318 0.7705373 0.5326431 -0.31814 -0.5664869 -1.2282243 0.15952598
00000000: 3831 3e3c f841 c53e 33d5 673f fdb7 c8bf
00000010: ca72 073e 6776 2bbe b383 a9bf e3ff afbf
00000020: 03c0 a93d de18 aebf 09a9 8f3e fdd5 36c0
00000030: 1b61 ac3e 3e60 d83e 929b 8fbe 09c6 033f
00000040: 5e64 3ebe 850d c7bf ecb2 0ac0 355c 463f
00000050: 9a27 78be a365 25be 125f a5bb 4881 563f
00000060: 8c49 993e ec70 433e 2406 ffbe cfe5 963f
00000070: e455 87be d16a 01c0 e79f 19bf 6ca5 1f3f
00000080: c984 0f3d 8d73 263f a1cc 33bf 944b d3be
00000090: 492d a63e 5c6d 4a3e fd66 78be 3079 e2bc
000000a0: d0b6 b2bc 9ebd 11c0 a113 d3be 5380 4c3d
000000b0: 428f 473e c5c1 a13e f50b c5be 78e2 1e3f
000000c0: d14c c23c c2aa 7d3e f930 4ec0 97e5 b33e
000000d0: f3f9 5dbe df52 5f3c 27e9 b13e ce37 fcbc
000000e0: 90f5 363e e4a2 8abf 0ecf 823e 3131 8bbf
000000f0: f236 69be 874c 8a3f 8e6e debf 524d e0bf
00000100: f7c1 91be bc8f a7bf 7a27 acbf a238 6dbf
00000110: c3ce 1abe 2a15 f53e af6d 193f 557f c8bf
00000120: e913 7a3e 953a 8fbc d3c5 293f 8cd4 b7bf
00000130: ecf6 1cbe 5536 183e b3a7 20c0 24ae 0a3f
00000140: 4216 29be d635 4abf 3614 0bc0 32dc debf
00000150: 1d42 a03e c58c 833f 59ea dbbe a455 533f
00000160: ed20 393d 833b 9abe 143d 043f c5de 35c0
00000170: 2483 94bd 7988 00c0 615b 2b3f c298 b9bf
00000180: 7782 8b3e a5b9 afbf 6c6b d5bf 7b3e 4cbf
00000190: e610 b3be 9930 81bf c317 8b3f 1d87 40bf
000001a0: 1fb9 8fb9 09da 473f a4d6 283f a182 5bbf
000001b0: 3cd7 cb3d 9fc9 f5bf fa00 eebe db39 e1bd
000001c0: 9022 e7bd f82b 7a3f 0ca4 2dbf dec0 2bc0
000001d0: 5010 93bc 8532 48bd dd2a 083f f92f ffbf
000001e0: e7e8 0e3d 014f 023f ce3b aebf b5ff cf3e
000001f0: 2302 953e 6080 a5bf 08b1 033f f37e 9fbf
00000200: af8f ff3d 9829 8dbf ef41 453f 4c5b 083f
00000210: 3fe3 a2be 4905 11bf 7436 9dbf c75a 233e

l3.bias f4 [17]
-0.36252785 -0.3402745 0.15516041 0.15832473 0.21446434 -0.65432656 -0.6434055 0.39893156
-0.056157354 -0.107196175 0.1664359 0.9048861 0.33861127 -0.27457482 -0.20778565 -0.5024327
-0.42994878
00000000: 409d b9be 7638 aebe 5fe2 1e3e e11f 223e
00000010: 8a9c 5b3e f281 27bf 39b6 24bf c240 cc3e
00000020: 4105 66bd ab89 dbbd 2c6e 2a3e 9ea6 673f
00000030: 755e ad3e 1295 8cbe c3c5 54be 6e9f 00bf
00000040: 3f22 dcbe
